提交内容说明/1111_李明+222_王芳+第二次作业/Results/item_bias.npy (npy, 72744 bytes, 1 tensors)

array f8 [9077]
0.8589356531761677 -1.494156001079902 -0.21206205010380913 0.23733378103777913 -0.560503031324259 -1.2162842732693269 -0.246515468854792 1.4958760125444082
1.0888513697860633 -1.9594299445982954 -0.19608075138579223 -0.5095676829453686 0.9804854103486381 0.011558697357412724 0.2441018230369965 1.1518384917980815
0.41152164869903757 -0.1863952446404695 1.309524388237392 0.12833677079037345 1.0670140599415854 0.12004374017289694 3.705826031583346 0.39336823018316974
0.14230721078481418 2.558220534895526 4.20964900198844 2.975198548047117 2.3214116015857233 1.833407132000368 -1.160096300715423 -0.46437407279779996
0.6129755388121036 -0.02618130468082778 1.5867164023018472 -0.24544543825088974 -2.33522540046871 0.29099118537311214 0.9990177771398516 4.188160165457476
3.321577565069109 0.19931691352311587 0.9237248279215744 0.15398901492366834 -0.9773769163113273 0.9606049569445876 1.1882161178892567 3.56757986406276
1.428678513431106 1.1094815947732342 1.8056062089546971 4.488118538579349 -0.3754898810110472 -0.2111328512119335 -0.656740490433676 0.05316905493122752
1.3146553183736593 -0.24518870602693604 2.196158222467561 -2.4332175035352885 -0.7946068004954024 1.6712004737801325 0.6728179061041505 -0.05897622381661666
-0.037974170273299086 -0.12094303025478705 4.378400150489714 1.4032773048085305 0.42672235025185096 -0.11305002723195033 -0.6797324494522875 -1.2184776587419535
-0.9248482261978811 -0.2164709852019144 -1.2327663076051305 0.07926263632677749 -0.01306463015272178 -0.7730506788036334 3.047401507169453 -4.465247358745436
-2.5283061269199467 0.46912070348921686 -0.7362226959248014 0.01692526692608137 -0.9831014772073061 0.7345575034592101 -0.33938280103709717 3.12034168919307
-1.7372798365188777 0.8361528772794581 0.9323240387027455 -1.818029922507689 0.6891565083924642 0.07885568809944636 -0.24233431706972708 1.2533182292913199
3.087773764303481 0.00877534544646953 0.051905637372504636 -0.9723970336969108 -0.5807291393730112 1.1429117897030296 0.6547569689511873 -0.014008794521212575
0.36819413097529125 4.163695189672076 -0.09518912927645054 -0.08804646212459402 0.04429129186888358 -0.5761374360573578 -1.0429834626394021 0.8072205365357028
3.976726786389997 1.3507869758290323 -0.16207704640374834 -1.2329114987335805 -0.6248626684159005 -0.3340192253897057 0.07146173373394782 3.3994803178401845
3.375918680337527 0.7399003288775782 5.258920045793204 2.047316381581613 -0.6148222084241934 -4.285989400054655 -1.682583163523149 -4.584570845572855
1.9485217798257095 3.8592120631928553 0.6702987321454349 1.943674003173928 -0.2553649982333032 5.0699227119971475 4.653686014487855 -2.8337305297012634
-0.7393727109121359 -1.161429768746331 -0.6005817821460226 -1.2658207575315905 3.9740197970216595 0.8912245695876432 0.8903036247113238 -1.031713750165623
-0.12325507840931 2.0598188539646576 -1.7868322324395602 1.1086464261514797 -0.699894249622281 -1.624845342082872 -1.8791302629064615 3.129504473540605
1.4139145108703504 3.611335471448675 2.98730662268421 3.280832470936492 -0.8549669194207423 0.7714414059253764 -0.447045332156326 -0.9105210510653972
0.47604308898067 0.7307912505682895 3.8126259917832677 0.32018320897181024 -1.341285506844507 1.8385197701670069 2.707687757324295 1.636805637668804
1.6739266642441135 0.7538156958040384 3.0519281363577653 2.0206941401456486 0.0861195298375093 -1.432003803333287 -1.2377270262936864 3.9217234564719563
1.0904059203132577 0.7159956142188385 -1.4465711882454824 -2.847017686064424 0.43194310600170527 0.6024040177854868 0.06358887523497597 -0.5155001520628832
1.2299670949566683 0.39178960284342157 0.1821007820433807 -0.4944239575333703 1.5917965594147307 -0.3251997151761585 -0.43665576810003776 -1.5109263526816963
-3.1130839250283255 0.5904974192924338 -1.1327289334109416 -1.1867396728791098 2.327507269676306 2.3232098714369163 0.7327849724149562 0.8023842881861342
-1.9574723714503497 -1.1113327736262593 0.4296582346543838 0.10022514527438597 6.398419391992066 -0.2742478482800282 -0.12420514385248958 1.2937581548711856
-0.4619379939686754 0.6235848802472763 -0.47735451744638213 0.27466653932623725 2.812861565310466 2.328463110137648 0.8050771611575357 0.5111602939532979
9.304176079659262 0.46108062224499885 1.6590814941117862 1.248559252203606 1.9474532618703124 3.5109884743834603 0.6826885737609314 3.0029109329037578
1.5860890091348498 -0.8414846538387036 0.8833584886099948 0.7539896329205175 4.140702162811068 1.553875349023068 0.7453090175780145 2.048827499554619
0.31193178841032726 -0.33954424724385224 0.34468649880428043 0.16907258615450682 0.079032469538101 0.25679415532951444 0.24525563492816735 -2.530469124846145
-1.108358622831774 0.9049604533871312 1.3807884542430715 -0.8415033908294556 -1.0698852474557907 0.3965944166095869 -1.0961459330283707 -1.2952323184123726
-0.38765781939542104 -0.06964198437747894 -2.1097462925058013 -0.2233387504589447 -1.8734494381863085 -2.4234657086550273 1.6427592851594832 -1.8033558739297528
00000000: 3d52 789f 667c eb3f 452a 7c1f 10e8 f7bf
00000010: d293 f568 d924 cbbf 688a e50d f460 ce3f
00000020: fd16 9b0d a4ef e1bf 4f4b 857f e675 f3bf
00000030: 833f 58a2 d18d cfbf 64fc 8baf 1bef f73f
00000040: a1f9 f669 ef6b f13f f3a4 ad36 d359 ffbf
00000050: e6dd 498f 2c19 c9bf d229 abe2 604e e0bf
00000060: 9de1 74f0 2260 ef3f 245a 1319 16ac 873f
00000070: a23f 6b81 ba3e cf3f 62bf c832 ee6d f23f
00000080: 1789 b0e5 5e56 da3f 972c eea3 ccdb c7bf
00000090: 3fb4 4cd8 cff3 f43f 959e b5dc 566d c03f
000000a0: 0424 bd55 7d12 f13f 35d2 21c2 2fbb be3f
000000b0: 0887 521e 88a5 0d40 eb03 fbf0 f12c d93f
000000c0: fe22 2768 1f37 c23f c1a7 ea53 3c77 0440
000000d0: b2b7 5c3a aed6 1040 9ec0 77e5 34cd 0740
000000e0: e1ec ea3e 4092 0240 a31d 83b7 a255 fd3f
000000f0: 7e88 7c23 c18f f2bf 4eb8 f107 4eb8 ddbf
00000100: 5645 8ee0 7e9d e33f 5aaa 7b9d 45cf 9abf
00000110: 859c febc 3063 f93f f9b6 1e91 c16a cfbf
00000120: b469 9ea7 8aae 02c0 bb83 267e 999f d23f
00000130: 6206 1e21 f4f7 ef3f 0133 f40e adc0 1040
00000140: 07cb 2842 9792 0a40 708b 8f74 3783 c93f
00000150: fca4 cd5e 278f ed3f 342c 857b e9b5 c33f
00000160: f484 6df4 ab46 efbf d07a 4e9b 46bd ee3f
00000170: 8aa1 6ee7 ee02 f33f 3524 d04f 678a 0c40
00000180: b3f3 3a00 dedb f63f 190a d1c5 6fc0 f13f
00000190: b4a3 0e56 c3e3 fc3f 1714 9f58 d5f3 1140
000001a0: e0f7 bab5 0608 d8bf b182 88b9 6606 cbbf
000001b0: 78e4 0ba2 0404 e5bf b67d 2d70 f938 ab3f
000001c0: 5dd6 de03 d408 f53f dafb ddf0 5762 cfbf
000001d0: a3b7 f266 bb91 0140 1fe9 0dbd 3a77 03c0
000001e0: 89d2 a93d 6b6d e9bf 4120 3fb5 3cbd fa3f
000001f0: 432d dc6a b987 e53f 3861 11b1 2132 aebf
00000200: b146 d5b6 5971 a3bf 599a 9f57 1ff6 bebf
00000210: 849e 3c54 7b83 1140 54f2 35e7 d273 f63f
00000220: 0974 b342 6b4f db3f 3fec c5b9 d8f0 bcbf
00000230: 79ae 0d44 5ec0 e5bf e040 f36d e27e f3bf
00000240: 8312 a94e 5b98 edbf cfd0 fc3c 52b5 cbbf
00000250: 3865 ec29 69b9 f3bf e478 d15e 8e4a b43f
00000260: 9415 ecf9 a0c1 8abf 3197 f3c6 d4bc e8bf
00000270: 5e97 980a 1461 0840 b772 b9cd 69dc 11c0
00000280: 472e 0b90 f839 04c0 7836 d7d7 1206 de3f
00000290: 3b3d 32e6 228f e7bf 8fc1 b16f db54 913f
000002a0: 4026 a83a 9175 efbf 5970 ccbc 7e81 e73f
000002b0: 88de d1a3 72b8 d5bf e36f 1bb4 75f6 0840
000002c0: b694 1df1 e5cb fbbf efe3 cbad c3c1 ea3f
000002d0: 0118 f038 99d5 ed3f 781e 458b a616 fdbf
000002e0: bce0 2bf3 910d e63f 6b9e 7de9 e22f b43f
000002f0: 14a9 4197 cf04 cfbf ee96 646a 970d f43f
00000300: c70a 39bb c2b3 0840 c727 a1ed cef8 813f
00000310: ff62 fc2d 6093 aa3f 9e94 4e62 e01d efbf
00000320: 341f ae46 5595 e2bf 27cc 6fdf 5d49 f23f
00000330: 6526 0fe3 c4f3 e43f 6695 9992 a4b0 8cbf
00000340: 958d c71d 7e90 d73f c89d 38b6 9fa7 1040
00000350: 8a54 2d95 505e b8bf c287 5a83 368a b6bf
00000360: bf1d 2624 59ad a63f bbc3 bbc6 b76f e2bf
00000370: 91e1 646d 0fb0 f0bf c692 a229 c0d4 e93f
00000380: b260 2522 56d0 0f40 65c6 d0cd d29c f53f
00000390: 7d41 dece f0be c4bf e9c4 5e68 01ba f3bf
000003a0: 7fcd aafe dffe e3bf b12d 522c 9260 d5bf
000003b0: 1082 4df1 504b b23f 7b27 a4bc 2232 0b40
000003c0: 900a 30a7 e101 0b40 e185 5a74 43ad e73f
000003d0: b0d7 2356 2209 1540 28aa 3b69 e760 0040
000003e0: 3e2a c19f 9fac e3bf 1af3 c067 da24 11c0
000003f0: 441d c252 dceb fabf cfb8 5fbd 9956 12c0
00000400: 7952 7e2c 252d ff3f 9def fd92 aadf 0e40
00000410: 51ad a353 1673 e53f 8e7a 5be9 4919 ff3f
00000420: ef20 fd6e e657 d0bf fc19 c5d1 9947 1440
00000430: ca4f d8dd 5f9d 1240 10f3 75e9 7aab 06c0
00000440: 0185 9df5 f0a8 e7bf 82dc 9561 3795 f2bf
00000450: 807f 1c49 f737 e3bf 5623 4344 cd40 f4bf
00000460: acea 2ee4 caca 0f40 c9a8 7863 e984 ec3f
00000470: 10a7 f406 5e7d ec3f c5b7 fc46 e681 f0bf
00000480: 9d7a d512 a58d bfbf 01b3 ab4e 827a 0040
00000490: eb43 1c65 dd96 fcbf bc5d f208 04bd f13f
000004a0: 3328 19a0 8865 e6bf a4dc 54d4 5dff f9bf
000004b0: d2b6 01e5 ea10 febf 3c57 34a4 3909 0940
000004c0: a772 78d2 649f f63f ee0d 06da 03e4 0c40
000004d0: 546c bc03 01e6 0740 e99d 3218 253f 0a40
000004e0: d85d c295 e35b ebbf 215a 27e3 a5af e83f
000004f0: 5637 5c06 649c dcbf 56a7 140b fd22 edbf
00000500: b529 aa6e 7d77 de3f 8f99 2c55 a462 e73f
00000510: a8b5 540e 4280 0e40 d9c8 d0b6 e17d d43f
00000520: 61ef a7ca e775 f5bf eeaa deb4 936a fd3f
00000530: 42e6 eb32 58a9 0540 9122 bb1b 5b30 fa3f
00000540: 1f4b 6d53 67c8 fa3f 1513 1618 421f e83f
00000550: ce30 7b4c 596a 0840 bc27 79b0 612a 0040
00000560: 93f1 32f4 ed0b b63f 7c06 f1d1 7ce9 f6bf
00000570: 4ee8 b4da bacd f3bf 6a06 2c8c b05f 0f40
00000580: 7ac3 717a 4d72 f13f 6dc7 64a2 6fe9 e63f
00000590: 729a 8dd4 2725 f7bf 0c3e 6635 b1c6 06c0
000005a0: 9aa3 80b2 f4a4 db3f f0c3 6bca e446 e33f
000005b0: ac0d 864b 5c47 b03f f62d c62c fa7e e0bf
000005c0: 97eb fff9 f1ad f33f 5005 c8b2 1413 d93f
000005d0: 6ae6 b913 144f c73f f2bd fd61 a4a4 dfbf
000005e0: 3b25 49ab ff77 f93f 4b68 5677 12d0 d4bf
000005f0: ef5c e608 2bf2 dbbf 4eeb 761c c12c f8bf
00000600: 8c99 7d8b 98e7 08c0 0978 07d8 5ae5 e23f
00000610: 30ba c35f a81f f2bf af1a 3ebd e2fc f2bf
00000620: 26b2 a321 bc9e 0240 0187 9c0e ef95 0240
00000630: 50b8 7078 f972 e73f 8dad 92d0 21ad e93f
00000640: bc3e a38c ce51 ffbf 012a dbdf 04c8 f1bf
00000650: 100d 9340 857f db3f e8b9 30e9 5aa8 b93f
00000660: e2ca ca40 fb97 1940 1d1c d7d8 468d d1bf
00000670: 2f67 d786 e8cb bfbf 44ae 41c0 3bb3 f43f
00000680: 0405 3860 6490 ddbf ea25 5e47 68f4 e33f
00000690: b6ec 41f6 f98c debf 478c edf6 2294 d13f
000006a0: 7678 7990 bd80 0640 81de 5f44 b1a0 0240
000006b0: 4db3 bd2d 31c3 e93f 9361 31d5 6c5b e03f
000006c0: 5bb9 94f7 bc9b 2240 7524 574c 5882 dd3f
000006d0: 36be 6909 998b fa3f c152 3544 19fa f33f
000006e0: 548b 63c0 c428 ff3f 11e1 1020 8116 0c40
000006f0: a4fe 34b5 95d8 e53f dcfa cc2a f605 0840
00000700: b577 6cde 9e60 f93f f156 8a39 71ed eabf
00000710: 522a 6705 7944 ec3f 5755 dddd ae20 e83f
00000720: 0100 4f3a 1490 1040 a8d5 e165 acdc f83f
00000730: b12a fd4b 92d9 e73f 40dc 0dac ff63 0040
00000740: 8987 73bf b0f6 d33f 2244 5dcb 17bb d5bf
00000750: 192d eff5 570f d63f 1885 17a6 2ba4 c53f
00000760: 9cfe fccf 783b b43f ea6d bcc0 506f d03f
00000770: 878d 9661 8964 cf3f f603 b698 663e 04c0
00000780: 46d5 5440 d6bb f1bf ee12 ef9f 6ff5 ec3f
00000790: b4b1 5aa2 b517 f63f 62bd e284 98ed eabf
000007a0: 52ba 44fe 3f1e f1bf eb51 478c cd61 d93f
000007b0: 0f01 6051 d089 f1bf b9da 0486 45b9 f4bf
000007c0: 75e3 15be 62cf d8bf c16e 549d 0ed4 b1bf
000007d0: 7a5b 09aa c2e0 00c0 3c49 933a 5d96 ccbf
000007e0: 2c84 3b1e a6f9 fdbf da34 4dfd 4163 03c0
000007f0: 775d cff5 bd48 fa3f 9e3e 59b0 8bda fcbf
