提交内容说明/1111_李明+222_王芳+第二次作业/Results/user_bias.npy (npy, 4912 bytes, 1 tensors)

array f8 [598]
8.107434952829989 0.7067272294406509 -4.785873107245237 -1.6689618770551855 0.14381089272524744 -0.7531248054298788 -4.808948560078237 -0.7241420105012296
-1.7417927425178639 -1.3528135218470843 1.0268509113339543 2.9020672105485485 0.6762211078939023 -0.6509837260294701 -0.8666125840106289 0.03998967130754081
2.5499637266365416 -0.47998728854792255 -10.515146443293055 -0.8144552865329946 -4.040273069485619 -5.563830950583361 0.1097130050118389 -0.42234800388610444
3.094106824352319 -0.9709482635029348 -7.154146363403811 1.7307426068897325 3.259601670044626 1.9683799697197635 1.02682198107165 -0.06779079273329178
-0.5813211271239512 1.177814508792459 -5.31612683923843 1.760515110615921 -3.1842891901207637 1.1073526090154713 2.238645516812643 -1.825734701252941
-0.5614327185179921 8.94960350505535 -0.7796897575781658 1.1657887041458155 2.162982270293365 -3.040580087715588 2.0369940639094803 1.300801035792491
-9.047606298357197 0.06540298057750807 4.954099733529235 3.518058153182039 -1.915596579693737 -2.71009337589393 1.9550075558754818 -6.4578418267521105
2.0471029431707466 5.271647270605915 0.46617395222481905 1.523085762274382 3.9108687061622143 -2.1153280537361043 0.37627272685577157 1.031582172256911
2.9404127443151005 1.3237455476577327 -3.099690338152099 3.1735893640668267 2.426560820155811 -0.15200838508090206 1.6729690944514615 -0.17498812830867005
4.735963776153452 -2.26569717964619 -4.97489011184173 0.5993047157381478 -2.141949218531526 2.891171625404449 5.844143873318694 -1.6503095065063647
-2.9159154776756715 -0.4119915666503761 0.6186386297435862 1.9144807004661055 0.8561039378375914 1.7775751780217093 4.283362076580724 2.9266947654908964
-3.354653950254468 1.6585862882744558 5.825426951398157 -2.9258067252576394 3.1269613087460866 0.3324356246806509 2.020715632771282 1.3805921102373175
1.8992622307100802 3.1857656777234196 0.17782131502656282 -1.6450531399595199 1.5518783183178824 -0.9634925380735803 5.951905183504675 3.0182871989323923
1.5856516276955128 2.3185612241646956 -2.9651408003968274 -0.16549775161837715 -1.3437971198141418 -0.35606132008834646 -1.2111654428991288 -0.6039504476422848
0.9869186943017674 -0.8112719547179491 -2.238135462839888 0.1177017614449313 5.396495643684228 -0.9188622784636868 -1.5334700386522389 7.839731087903727
1.6708489012449401 1.562943697457534 2.485358337197541 -0.8917775293076851 -1.3194347640519362 1.953647508419054 3.3631796711825266 -0.14594963576056094
-0.7418440710705845 -6.826951612198599 -2.195666649571401 0.06230378346741108 -2.164237503438558 -1.0353269702065317 1.824205479297789 -0.2702968328796215
-13.674719195537035 -2.6121221710451827 -0.882842823403335 0.6603162139300147 -0.847543596533875 0.3804943778069865 -0.3591913376000204 -2.0211752004307817
-0.3821162809514141 1.110482173672702 -5.342615004304607 0.0761482825017616 0.41801737207512285 1.309497674141155 -10.61368501479535 2.310580122058603
0.9387932714830707 -1.2398790265456632 -0.20558834987983118 0.3525230276803833 -1.466608968899252 -8.855936667587457 0.4477258324363184 3.31036935130124
-1.6582211843074746 2.2409342676124044 -0.18852873778815799 2.7165949848641384 -2.332218556408494 3.7556515877678756 7.531001790371056 -1.539035107517945
5.9885657430028925 0.51671673907545 -0.24762787888814897 0.9311382804033352 0.6954937491153464 1.7257133997291172 -4.789905946235803 1.3640003773617264
0.9823217132885542 -0.07418222088527467 -4.3877170847918885 -1.852617660692701 0.6661181327306115 -0.43236380614991154 -0.8673333707735441 6.037976233905381
1.395655971022058 4.352555768671424 0.5993533967131449 1.2893069503612595 0.5424745705186547 1.4756424317312142 -0.15344261025870404 -0.21535526001702338
-1.3360600878978752 0.6035326655780701 1.6837099838242275 -3.3322724933159305 -5.759581258296741 1.2583352681812403 3.708597885296854 0.2816045837675755
0.7332122867471464 0.7287810962529423 0.9189624087012708 1.5654123723574258 -1.5394605640613501 -1.0100949744689323 1.2613378218062232 4.909097661828287
0.8660850953354876 0.1527676178993055 2.3314147564266525 -1.8467600281713663 0.7965500758509105 -0.25945276805226125 -7.836137304529668 -0.7684693582924692
-7.6900372368311105 1.0107077992610995 4.078538727234363 -5.599376356767544 -2.787018968501773 2.334247961057807 0.40133421468216585 -2.4646803010467706
2.8357258052795404 0.5208382661844829 1.209495060417119 -4.669677540225854 0.5985965772042555 -5.6392231965738135 -3.644711024187576 -1.1146999479222315
-0.47318547021610685 -1.4503872172047878 0.9190789563509177 2.1097771002040657 3.1433225577971746 1.970527743394581 0.17888918433358197 2.662200583789403
-0.18631543099960918 -2.3878882011987774 5.476933013041591 -0.36772606529543234 0.9538931653982808 0.40343904671279485 1.858128616005249 2.189202965967152
2.4518374972503425 3.515288220234848 1.1141942907923528 -4.2075303794424865 4.1527041966895535 -0.6012674630002383 0.975852502763434 -1.8713082248794073
00000000: 47b4 d1b6 0137 2040 357d 346c 829d e63f
00000010: 60b2 79eb bb24 13c0 9190 835e 11b4 fabf
00000020: d620 8834 6568 c23f 0f16 2431 9919 e8bf
00000030: b2ba e602 5d3c 13c0 2766 98dd 2b2c e7bf
00000040: d663 1811 62de fbbf 89b7 9eca 1fa5 f5bf
00000050: 0bc1 a038 fb6d f03f b9cc 8003 6f37 0740
00000060: 459d e872 9aa3 e53f 25cb b0d2 dbd4 e4bf
00000070: 2616 5450 4abb ebbf ad29 e3b4 8679 a43f
00000080: 311f df61 5366 0440 5bc7 b39a 1cb8 debf
00000090: 5430 4d46 c107 25c0 2ad5 7688 0410 eabf
000000a0: ad66 f157 3d29 10c0 9ae9 94e6 5c41 16c0
000000b0: 70c3 78c8 2616 bc3f 5330 0eec bf07 dbbf
000000c0: 9663 2714 bbc0 0840 8f4c bb17 0212 efbf
000000d0: 8077 568b d89d 1cc0 b829 e628 1fb1 fb3f
000000e0: 14a1 560a aa13 0a40 03c4 c0fe 7b7e ff3f
000000f0: 4544 b8e2 dc6d f03f 3668 c2c5 bc5a b1bf
00000100: 4f14 afc3 2e9a e2bf 6249 c006 54d8 f23f
00000110: eaaa 0fc1 b643 15c0 e558 83e4 112b fc3f
00000120: 9d99 649c 6c79 09c0 9fc9 8d5e b7b7 f13f
00000130: e960 10fb bee8 0140 01dc 1097 3536 fdbf
00000140: 840d 9ebf 41f7 e1bf 68c2 3c6e 32e6 2140
00000150: 6861 3aef 37f3 e8bf d4a3 650e 12a7 f23f
00000160: 16e7 05a6 c94d 0140 acdb 2ca7 1b53 08c0
00000170: 4c19 358b c34b 0040 8a4e 35bf 14d0 f43f
00000180: 390e 4dda 5f18 22c0 922d a4ee 3fbe b03f
00000190: 8285 4285 ffd0 1340 7fbe 4aac fb24 0c40
000001a0: 2fd3 6199 48a6 febf b890 946f 45ae 05c0
000001b0: 7cb0 be00 b647 ff3f 9a90 e27c d4d4 19c0
000001c0: aab5 0382 7760 0040 4533 bdb3 2a16 1540
000001d0: da5e c345 cbd5 dd3f 178c 1f2d 8f5e f83f
000001e0: 1555 3f88 7549 0f40 fadc 581d 31ec 00c0
000001f0: d539 0e34 da14 d83f 5fae cf4e 5c81 f03f
00000200: 8899 ec1d f785 0740 2ea6 b6cf 0f2e f53f
00000210: 3cb9 b072 2acc 08c0 bdcd 0cd2 8263 0940
00000220: da97 22b8 9869 0340 abf3 51c1 0275 c3bf
00000230: 4634 be3d 7bc4 fa3f 1812 23d0 0266 c6bf
00000240: 9d7a f67c a0f1 1240 33c2 c9d7 2520 02c0
00000250: 4f37 ee97 49e6 13c0 afe2 4d15 812d e33f
00000260: 0949 9a45 b622 01c0 d6e1 d196 1e21 0740
00000270: 1917 6440 6760 1740 5390 ebf0 aa67 fabf
00000280: 4823 747e cb53 07c0 536f 3fe0 115e dabf
00000290: 824f 593d e3cb e33f 9733 d583 b6a1 fe3f
000002a0: 1ea8 df15 3465 eb3f cd8d 7cab f270 fc3f
000002b0: 0a5d 0fab 2922 1140 2743 f9f1 de69 0740
000002c0: d4eb 6dcf 54d6 0ac0 9db9 9bc6 9189 fa3f
000002d0: e0f7 05b9 3c4d 1740 f62f 3b5b 0d68 07c0
000002e0: d95f 674a 0404 0940 a6d6 0112 a046 d53f
000002f0: 1926 2af5 6c2a 0040 c65b a9c0 e716 f63f
00000300: 46d8 f6ca 6063 fe3f b654 34b7 727c 0940
00000310: ff0f 494e d9c2 c63f 96ee c43d 2352 fabf
00000320: 9fbf 085c 7ed4 f83f fbe9 9e4d eed4 eebf
00000330: 8c2e 803b c0ce 1740 f2cc 4ac2 7325 0840
00000340: 84d2 bc3d d45e f93f 1e7d bcd3 698c 0240
00000350: c7ea 6dbd 9bb8 07c0 5298 61c3 072f c5bf
00000360: c3f8 a068 3180 f5bf 309a 496b b5c9 d6bf
00000370: fac0 f403 ef60 f3bf cce6 a0e3 8f53 e3bf
00000380: a0c9 7a83 d694 ef3f 639e 359a f0f5 e9bf
00000390: 3652 c790 b3e7 01c0 3a6b 16e0 b321 be3f
000003a0: 5b85 3af4 0296 1540 52f2 70dd 5167 edbf
000003b0: fb83 16e1 1789 f8bf 8eec 5f77 e25b 1f40
000003c0: 0b79 b60e ccbb fa3f 5f1c 2140 d101 f93f
000003d0: c5d5 488d 03e2 0340 e0e4 7507 7189 ecbf
000003e0: caef 8ca0 671c f5bf c625 c9e3 2342 ff3f
000003f0: 6b68 52be cae7 0a40 4f34 3a48 7aae c2bf
00000400: 6059 ffc6 2fbd e7bf e011 4767 cc4e 1bc0
00000410: d19d 26ad b990 01c0 93b6 d110 48e6 af3f
00000420: c35c 90c0 5b50 01c0 d942 5b03 b390 f0bf
00000430: c449 ac15 f22f fd3f e28a 5b16 8b4c d1bf
00000440: 47a1 5dcb 7459 2bc0 585d 0e4f a0e5 04c0
00000450: f0d1 c097 3f40 ecbf 6e22 fb77 4f21 e53f
00000460: c382 a1bf 131f ebbf 448b 3f17 055a d83f
00000470: c8e8 ffa9 fdfc d6bf 0eb1 4ae7 5d2b 00c0
00000480: 7126 7dd8 9774 d8bf a771 abf4 88c4 f13f
00000490: c26d ba77 d65e 15c0 cddb fd2e 747e b33f
000004a0: b53d 8eef cbc0 da3f 3dfd 49d5 b3f3 f43f
000004b0: bf2e 19ec 343a 25c0 303c 586e 117c 0240
000004c0: 3c30 d72f 980a ee3f b628 e063 8bd6 f3bf
000004d0: d713 9613 b850 cabf 7558 bebe bc8f d63f
000004e0: c314 57f7 3a77 f7bf 8078 b554 3db6 21c0
000004f0: f3da f83f 8aa7 dc3f 1028 2ced a27b 0a40
00000500: ed28 c2ef 1288 fabf 440c fff1 6eed 0140
00000510: 9201 94ad b521 c8bf b2c0 c326 96bb 0540
00000520: c530 d733 62a8 02c0 6811 450f 930b 0e40
00000530: 670b efee be1f 1e40 78f7 e246 e39f f8bf
00000540: ce92 0094 4af4 1740 8dfe f38a f188 e03f
00000550: 7083 b334 45b2 cfbf 225a cc81 e2cb ed3f
00000560: 1fbb 601b 7c41 e63f 44b0 61a7 859c fb3f
00000570: adfe b71a dd28 13c0 1f01 480f f2d2 f53f
00000580: 7033 17f2 2d6f ef3f 6d9b a524 9bfd b2bf
00000590: 6120 1db5 058d 11c0 c0ac 8a6a 52a4 fdbf
000005a0: d137 6bf9 d650 e53f 3cd4 d83d d9ab dbbf
000005b0: 4375 c6e9 31c1 ebbf 6e98 ea3d e326 1840
000005c0: 1c1c 005b 9b54 f63f f2d6 2161 0469 1140
000005d0: a124 b42c e72d e33f e7e9 2453 00a1 f43f
000005e0: ae41 69a1 f35b e13f f501 0e3d 3b9c f73f
000005f0: 7edf 6fe8 01a4 c3bf 76b8 65db c290 cbbf
00000600: 3732 f08a 8060 f5bf 6d37 97bc 2350 e33f
00000610: 7794 47e1 79f0 fa3f e937 217b 7ea8 0ac0
00000620: f827 5cab cf09 17c0 7bde 8329 2422 f43f
00000630: 01eb 3a5e 35ab 0d40 13de 6b3b cf05 d23f
00000640: fc56 139d 7976 e73f 692e cbbb 2c52 e73f
00000650: d102 74da 2368 ed3f 7376 00d8 ed0b f93f
00000660: de00 8266 a1a1 f8bf 162b 1359 5929 f0bf
00000670: 84d9 5d91 702e f43f b4b0 597f eaa2 1340
00000680: 559b 0017 f8b6 eb3f b5f6 61a9 e38d c33f
00000690: 3e1d a2c7 bca6 0240 9ce5 483e 548c fdbf
000006a0: cafd ac95 567d e93f 5e08 69c8 df9a d0bf
000006b0: 9cae a760 3458 1fc0 3104 3b0d 4d97 e8bf
000006c0: e9d8 141f 99c2 1ec0 8637 faf0 db2b f03f
000006d0: a4c3 c374 6c50 1040 b93f 69ea c265 16c0
000006e0: c95f d899 d04b 06c0 d4fb eb31 8aac 0240
000006f0: 03d9 b4b3 75af d93f 03bb 404e aab7 03c0
00000700: 87ca d002 91af 0640 f990 f802 b5aa e03f
00000710: 21a4 127e 175a f33f 078b f8f2 bfad 12c0
00000720: c7df 5202 b427 e33f 3584 9086 908e 16c0
00000730: e90c e240 5e28 0dc0 b9dc d29c cfd5 f1bf
00000740: df50 e1b5 ab48 debf 6de5 063a c934 f7bf
00000750: 1302 7f45 1869 ed3f 36cf f9d0 d2e0 0040
00000760: bb24 144c 8625 0940 b3d8 5b19 4887 ff3f
00000770: 9e11 293e d7e5 c63f 0824 d6d1 2f4c 0540
00000780: 6a15 711d 2fd9 c7bf 6139 1521 651a 03c0
00000790: e395 b520 61e8 1540 3f29 15e8 d288 d7bf
000007a0: e16e a8f5 4a86 ee3f 4ce5 e301 f2d1 d93f
000007b0: 8f11 5812 e5ba fd3f b914 39d8 7c83 0140
000007c0: aa5f 4efa 5c9d 0340 ba61 2f6e 4f1f 0c40
000007d0: 367d 8564 bdd3 f13f 1e87 02d8 82d4 10c0
000007e0: 6ef9 2a7d 5e9c 1040 6984 3743 953d e3bf
000007f0: 9fd6 2207 2f3a ef3f 637c a9e4 e0f0 fdbf
