Results/item_bias.npy (npy, 72744 bytes, 1 tensors)

array f8 [9077]
000000 4f 1a fb 4a 13 fd e0 3f ac dc 1e 95 d9 18 f8 bf
       0.53089298863126 -1.5060668778440158
000010 ac 60 20 66 38 c0 ce bf 37 fd 3f 84 f0 55 e5 3f
       -0.2402410982765607 0.6667406638152106
000020 52 3a 1a fc 1d e8 de bf f1 89 d5 f5 28 49 f9 bf
       -0.482917305177499 -1.5803613284011784
000030 56 d1 1a b9 55 78 e0 bf 42 b3 24 09 24 53 fa 3f
       -0.5146893134429245 1.6452980382120619
000040 80 64 e2 e3 9e 6f f7 3f 01 24 2f 15 7f 18 06 c0
       1.4647511388523355 -2.761961141110533
000050 bd f4 3c aa 73 74 de bf 30 6f 4a 9a 4f 23 e3 bf
       -0.47585765480819103 -0.598060418461932
000060 fe 3a d3 e7 06 67 f6 3f a3 be 0d 18 de 30 94 3f
       1.4001530700367648 0.019717664926644073
000070 7c d8 da 9f 4c 86 e3 3f 63 a6 af ed 86 3f f3 3f
       0.6101439592519138 1.2030095371832423
000080 6e 81 41 b6 9f f9 e8 3f 41 77 bf d6 70 57 b7 bf
       0.7804716643986873 -0.09117799036854725
000090 1b f7 0a b4 3a 8f ef 3f 96 09 27 5c cc 8f b3 3f
       0.9862340465985854 0.07641293763939525
0000a0 a6 0c 79 6d b2 cb eb 3f 7e f8 32 99 ae 13 d0 3f
       0.8686153543607318 0.2512012954792978
0000b0 8d d4 a7 46 65 9e 07 40 ba 38 1c d9 65 b5 ae 3f
       2.9523416061370598 0.059977705719675936
0000c0 df 76 63 35 e3 41 98 3f 08 86 1d 0b 3d 20 07 40
       0.02368884099347823 2.890741431082237
0000d0 1c f3 5f 53 35 c7 0a 40 4b ac 6e 90 1d 5e 08 40
       3.347269679418231 3.0459548267149663
0000e0 88 79 38 f4 a1 42 00 40 85 1f 03 63 ba 1f fb 3f
       2.0325354652151795 1.6952461116470385
0000f0 73 e1 bd 20 d4 f0 ed bf cf 65 1e 62 05 42 e2 bf
       -0.9356480254637475 -0.5705592075711879
000100 35 b3 6d 6d 4b f5 e8 3f 29 76 6b c6 ac ac ae bf
       0.7799431931758593 -0.059911154957927266
000110 0f c1 1d 06 4f 55 f4 3f 48 58 5b c8 18 3c c5 bf
       1.2708273161807175 -0.165896509008862
000120 d5 df a5 96 7d ba 04 c0 6e c3 34 de 7f 8f da 3f
       -2.59105985349377 0.4150085134488596
000130 7b 34 87 0d fb 0c f1 3f 59 5f 89 d9 97 5b 12 40
       1.0656691101496836 4.5894464483352175
000140 e1 9d 56 e4 ab e0 0c 40 cf fc 4c a3 28 4b d6 3f
       3.609702857869465 0.34833732554757274
000150 2e ab 4b 6f 00 e1 f1 3f 62 15 5a 15 03 cc d4 3f
       1.1174320552333472 0.32495190701623333
000160 db 6c 01 ce c7 71 f0 bf a7 0e 2d af 72 d8 ef 3f
       -1.027778439244506 0.9951718732267708
000170 23 fc a3 4b 15 90 fd 3f 5c ff 14 9a d0 5e 0d 40
       1.8476765589437114 3.6712963140161445
000180 86 5a 1a 41 fc 43 f4 3f 5c 1f 45 45 c0 8c ed 3f
       1.2665979903300992 0.9234315255098227
000190 92 01 2b e0 0c 09 fd 3f 5a b9 60 b9 3a ea 0f 40
       1.8147095448076453 3.9893698198931533
0001a0 02 0a 7b b3 a0 03 d9 bf af 6a 44 bc 9f 45 e0 bf
       -0.3908464195957607 -0.5084990193457396
0001b0 70 c2 1b ca 48 2a e8 bf 2d 8b e3 34 57 3e b7 3f
       -0.7551616618566879 0.09079499284011368
0001c0 18 8d 94 65 cf 5c f5 3f e1 70 02 89 30 cf e3 bf
       1.33515872649952 -0.6190416980712393
0001d0 15 fb 38 f6 11 f6 02 40 b9 ef f1 5c f7 27 0a c0
       2.370151446927944 -3.269514776356996
0001e0 9f 86 7d 6e 40 02 f1 bf 7a a0 34 d6 df c2 f9 3f
       -1.0630497280148246 1.610076748600504
0001f0 0f b9 32 43 c9 ef eb 3f 05 b1 e9 d4 fa 10 dc bf
       0.8730207741225814 -0.43853636543532587
000200 f6 f3 3e e1 f7 f3 bb bf 62 33 d2 df d9 82 dc 3f
       -0.10919141053359724 0.4454865155938049
000210 aa ec e3 87 d2 47 0e 40 47 2f 3c 54 87 7d fc 3f
       3.7850695244247463 1.7806466379579022
000220 2a 70 b6 a2 d7 cf d6 3f 78 94 ab bf 1b 2d c0 bf
       0.35643568887622 -0.12637659891985087
000230 1a a1 33 3c 03 59 ed bf 8f e5 af 07 97 2d f7 bf
       -0.9171158004583362 -1.4486303615834435
000240 5d 63 f1 56 47 67 f1 bf 63 19 33 09 79 90 d7 bf
       -1.0877145191390902 -0.36819291971587215
000250 48 bb be 4a 5a 76 f8 bf 42 9d cb 63 f1 36 e0 3f
       -1.5288947028854682 0.5067069005134857
000260 9f b2 0a 6e 26 79 6d 3f ea 00 45 6a 89 2c dd bf
       0.0035978079398176345 -0.45584330919156335
000270 ea 48 db 36 29 a5 04 40 c8 f0 e9 27 6b 05 15 c0
       2.580645016257326 -5.255291579869841
000280 66 73 62 a0 dc db fe bf 46 6d f0 29 b2 e5 e3 3f
       -1.9286772027037045 0.6217890566944468
000290 50 7d 05 f5 63 af f0 bf d5 24 f6 82 b8 b9 75 3f
       -1.04281993590833 0.005304070232690712
0002a0 8a c1 65 4f 03 2e f4 bf 2e b9 5f dd 68 31 e7 3f
       -1.2612336255516277 0.7247814487180102
0002b0 e3 1c 53 ba aa 0f e6 bf 04 21 ef 67 d8 cf 01 40
       -0.6894124640611178 2.226486980424058
0002c0 46 56 83 72 4a ea fb bf ce 55 a4 40 c9 da e4 3f
       -1.744699904743713 0.6517072927987841
0002d0 93 1d e0 cf 97 9c ef 3f c5 ac 93 b2 3f d8 02 c0
       0.9878653583590896 -2.355590243465118
0002e0 41 fb 0f e4 79 ac ee 3f 28 42 1d fa 69 e1 92 bf
       0.958554215845517 -0.018438011065258803
0002f0 40 3e e8 ab 24 a6 d8 bf 2a 85 f3 a0 66 1e f5 3f
       -0.3851405791074036 1.319922093120406
000300 25 bd 82 f0 b7 0f 03 40 85 dd ba e9 f7 6f b6 3f
       2.382675055494149 0.08764600235269
000310 12 3f 1a 3c cb e4 b3 3f 80 52 f9 d2 ef 0b f5 bf
       0.07770986764284896 -1.3154142609757002
000320 eb 90 5b 16 8c ba dc bf f8 c6 55 e8 2b 9d f2 3f
       -0.44888593848578634 1.1633719516361776
000330 74 34 ce 32 fb 66 ec 3f 1f 43 60 53 f2 00 c3 bf
       0.8875709526343045 -0.14846638747305804
000340 d0 17 e1 1e 47 01 e3 3f 8a 97 0a 65 ae 15 05 40
       0.5939059832678542 2.635586537729016
000350 f5 e2 57 29 5c 76 92 3f 1f 04 f6 5a 10 b1 da 3f
       0.01802963259067077 0.4170571220675487
000360 ba 7b cb c7 d3 93 a3 bf ef a0 18 13 7b 17 e5 bf
       -0.03823720754530009 -0.6591163037274138
000370 1a f4 e6 84 36 4b f7 bf d1 0f 99 0e 83 7b e2 3f
       -1.4558625403872214 0.5775771412959277
000380 e4 52 2c f1 6c f2 0a 40 f6 0f 94 e8 13 5e fa 3f
       3.3683718530322597 1.6479682049839517
000390 b5 a2 47 0b 03 65 d8 bf 89 a5 37 a2 68 1a fa bf
       -0.3811652765421443 -1.6314474426856995
0003a0 49 86 47 c2 62 1a d2 bf a8 5e f9 66 99 88 83 3f
       -0.28286046002003623 0.009537886099834594
0003b0 ef 00 72 7a e8 07 ca 3f 95 e5 94 ab e1 0f 09 40
       0.20336633662009926 3.1327546505751322
0003c0 d3 5d 89 e6 f3 07 04 40 02 df 56 3e 1e 04 ee 3f
       2.503883172099202 0.938002702480816
0003d0 72 fb 0f e5 d0 21 10 40 4d bb 0e 1e a0 78 f2 3f
       4.03302343282745 1.1544495748637076
0003e0 ec 52 d5 6c 56 b2 ea bf 45 36 cf 72 be 76 10 c0
       -0.8342697263384173 -4.11596087827417
0003f0 8a 00 6c e1 54 e4 fc bf 7c 41 58 4a 81 59 13 c0
       -1.8057450109045328 -4.8374072662703576
000400 ae ef fa 7c 33 de 00 40 89 27 b2 e0 28 db 0a 40
       2.1084966434554735 3.3570115618103427
000410 6d 6d aa 7c 27 d4 ad 3f 9a c1 f4 4c 86 64 ff 3f
       0.058259233444199456 1.9620421415421334
000420 2f d3 ca a9 78 13 c7 bf bf b7 82 0f a1 ff 0e 40
       -0.18028171816481506 3.8748189174429792
000430 46 18 6c 62 33 c8 0f 40 f3 4d 97 5a 24 85 07 c0
       3.972754258083145 -2.940010745756575
000440 19 b4 c6 b7 74 4f ee bf a0 a6 e7 4f 84 d6 f3 bf
       -0.9471992101076722 -1.2398722764286632
000450 7a f8 c1 93 a9 09 d6 bf 82 9b de 91 ef 8a f4 bf
       -0.3443397467561976 -1.2839198778180791
000460 7b 6f 56 80 0f 2b 0c 40 27 3d 14 2b 3d b3 d0 3f
       3.521025660169412 0.2609398766225745
000470 89 5b b2 a3 77 5a f0 3f 94 07 c2 3a 8f 38 fa bf
       1.022086753311415 -1.6388084693175857
000480 82 62 fc 57 d2 09 c2 bf eb bb 93 57 54 75 01 40
       -0.14092473312554793 2.182289776035295
000490 1a b6 74 2a 22 1e fb bf 30 3e ad c9 01 a8 f2 3f
       -1.6948568018373238 1.1660173299786827
0004a0 7e 6a ab 42 db be ee bf 2e 45 1b d1 e4 a1 fd bf
       -0.9607979108944418 -1.8520248573516471
0004b0 47 f3 5c 18 37 24 02 c0 0f da bc 9d 85 c8 04 40
       -2.267683210693949 2.5979111026056283
0004c0 49 a7 d5 80 ac 8a f9 3f 8b d7 3a a0 9b c9 09 40
       1.596355918178647 3.223441364093508
0004d0 68 82 dd 57 63 50 06 40 1e 1f 82 41 5a 53 04 40
       2.7892519821619324 2.5406994932017275
0004e0 88 61 17 c8 1e 04 f4 bf 80 1d 9e 19 0c 11 f0 3f
       -1.25100591812779 1.0041619301499338
0004f0 4a 9e ef f0 6c 38 e4 bf 7f f7 e9 7e 03 10 f3 bf
       -0.6318878846913745 -1.1914095838141916
000500 51 52 de 0b e0 7d e2 3f 87 28 1e 3a 4d c5 ed 3f
       0.5778656226926363 0.9303346762765309
000510 90 81 88 d3 40 6b 09 40 02 da 5c f4 4d b2 a1 3f
       3.1773697401078564 0.034563480452948894
000520 2a 69 82 26 70 25 fd bf cf 1e 55 5e ec 1d 01 40
       -1.8216401581071957 2.139610993359248
000530 25 c4 9e df 88 fe 05 40 c4 98 ff 42 4e ea 00 40
       2.74928450301424 2.114407084870523
000540 01 c4 53 a8 a2 f8 f7 3f b2 73 a2 71 07 ff e9 3f
       1.4982019973069785 0.8123814792085027
000550 12 22 1c 91 f4 6b 06 40 ef fa 2a 42 71 2d ff 3f
       2.8027125679693734 1.948594339817358
000560 1e 51 9e ea 7c 88 b7 3f a3 7d ad 7c 3a b1 f3 bf
       0.09192639091481111 -1.2307686681959715
000570 63 63 76 01 1c b6 ef bf 61 c6 21 29 81 fd 09 40
       -0.9909801510394626 3.2487815106804168
000580 7b 51 ae 3c 34 54 ec 3f 8e e3 c2 83 30 91 ee 3f
       0.885278814809268 0.9552233289206116
000590 b6 e7 8a 8c b7 af f9 bf cb 0b ab dc d2 69 04 c0
       -1.6053996553368797 -2.5516717185687177
0005a0 c4 18 10 09 59 fe da 3f 8e 95 0d 21 22 01 e4 3f
       0.4217741573815028 0.6251383443420069
0005b0 10 db 05 95 e4 cb 6d 3f bc 8a d8 46 1f 2f eb bf
       0.003637262772993373 -0.8495022186001147
0005c0 32 c4 26 c3 99 e3 f3 3f 25 69 91 c9 ae 3e e6 3f
       1.2430665610411435 0.6951517044902046
0005d0 34 9e a3 a6 05 3d ce 3f 7a c1 b0 d8 b4 b8 cc bf
       0.23623724590946582 -0.22438679295147407
0005e0 fe 98 c6 cf 74 1b 03 40 d4 bf f6 c1 ac c8 d0 bf
       2.3884063942415414 -0.2622482198885312
0005f0 8d 4f 93 89 3d 83 e3 bf e8 1e b6 24 ce a2 fa bf
       -0.6097705542583626 -1.6647473749198358
000600 a8 ff d9 ba da 7e 0f c0 c5 84 64 42 f3 37 e1 3f
       -3.93694063165454 0.5380798622828925
000610 82 e0 87 60 ce a6 ef bf ae 99 89 21 7f b0 ed bf
       -0.9891120801321593 -0.9277949957875558
000620 df 72 cc 2b 2d 76 02 40 1d 07 54 8d 8c 4f 02 40
       2.307703344513683 2.2888423005359884
000630 c4 f6 71 fa 49 d6 e6 3f 7f b0 98 cf b6 a4 f0 3f
       0.7136583224780328 1.0402134045826015
000640 4e 1f 4a 38 14 b4 05 c0 d3 91 c3 01 29 64 ef bf
       -2.712929191362412 -0.9809765848590878
000650 ac 0c a3 49 3c 31 e2 3f be 6c 7d a1 86 ca c3 3f
       0.5685101927014293 0.1546181000256634
000660 a8 6c 3c 2e 47 78 17 40 3d 92 f8 2f 50 10 e0 bf
       5.8674590324764395 -0.5019913613255721
000670 77 03 84 f5 bf d4 e3 bf b9 d5 70 c3 c7 da f5 3f
       -0.6197204394558032 1.3659131655125363
000680 83 84 b9 20 56 01 dd bf eb f4 4a ac 47 9f ea 3f
       -0.4532065696312843 0.8319433560460799
000690 6a 23 e6 53 0c 24 e1 bf 70 02 8a 68 ad 52 dd 3f
       -0.5356504095699226 0.45817122658630804
0006a0 ff 7b 38 46 ba ba 03 40 85 0c 22 d7 e2 56 03 40
       2.466175602530256 2.4174248511567975
0006b0 f6 aa 5e 4f f8 5d f1 3f 4f 7a 43 ed 3a d0 e9 3f
       1.0854418850310004 0.8066687234930415
0006c0 cc 0c a2 b0 f8 42 20 40 e4 c3 78 b7 ed 9c e4 3f
       8.130803603917592 0.6441563208992389
0006d0 64 66 b0 ab c4 55 f6 3f d1 e9 ca fb 48 9a f4 3f
       1.395939512882614 1.287667258801424
0006e0 3f 93 a4 54 4c a8 03 40 2e 64 76 29 07 a3 08 40
       2.457176839134632 3.0796035041098753
0006f0 0c 7e aa f6 b0 9c e6 3f 92 6e 2f 36 92 81 05 40
       0.7066273515410457 2.6882671578621933
000700 8d c2 e6 8f 08 89 02 40 66 91 11 32 25 e0 f0 bf
       2.3169108621880867 -1.0547229724698695
000710 3d 36 74 88 14 91 f5 3f 75 72 8e c0 e8 f4 f0 3f
       1.347919972441914 1.0597922822700216
000720 c8 0f 21 a0 aa d2 10 40 24 86 88 d7 32 b3 ff 3f
       4.205729009645388 1.98124965851492
000730 5b 3e de ff 29 07 f0 3f bf 98 41 51 22 1d 01 40
       1.0017490382050684 2.139225611509658
000740 f2 a3 c6 fd 92 be dc 3f a8 d2 cf b8 90 56 df bf
       0.4491317251473098 -0.4896585278322996
000750 de 44 2a fd 9b 6e de 3f 72 02 7b 38 95 ae cf 3f
       0.4755010578456459 0.24751534707867823
000760 38 5d 76 77 95 b9 b7 3f 27 ec d3 9d 7d 84 d1 3f
       0.09267553488313218 0.27371158993600136
000770 82 89 fc 41 54 6a d6 3f 18 93 e4 d3 5b b0 02 c0
       0.35023981517783664 -2.336112647450488
000780 17 76 89 9b 57 c8 f5 bf f5 1e 38 ea 41 7e f5 3f
       -1.3614116740858486 1.3433245801151632
000790 ab dd eb 1a c6 9b f9 3f 63 ed 75 58 96 45 f8 bf
       1.6005307246794966 -1.5169890838140752
0007a0 3c a0 06 5a a5 23 f8 bf 2b 31 4c 28 db 21 e2 3f
       -1.5087026135097537 0.5666328227103227
0007b0 40 2e ee 7e db ef f8 bf 82 31 16 59 7c cc f8 bf
       -1.5585589369028554 -1.5499232749890273
0007c0 c5 e7 ce 7a 0f 4c de bf 92 31 46 6a ee 18 c8 bf
       -0.4733923625277579 -0.18826084317369102
0007d0 3c 7d 7a e5 fa c1 00 c0 a9 27 1d d2 3d 49 c2 bf
       -2.0947168281560646 -0.14286015281169043
0007e0 ef 31 04 d4 f9 e2 02 c0 a0 0c df eb 77 c2 07 c0
       -2.360828071954749 -2.9699552943653345
0007f0 c1 f9 3a c0 58 4a 01 40 53 e7 05 97 bb f1 fe bf
       2.161302091407578 -1.9340167903269119
