Results/item_bias.npy (npy, 72744 bytes, 1 tensors)

array f8 [9077]
0	0x3fe970ad872a1755	0.7950046195917176
1	0xbff5f3a45f032e2c	-1.3719829284117493
2	0xbfca0e985e6b039e	-0.2035704098725803
3	0x3fcb98565e1ba51e	0.21558646769634832
4	0xbfe0d2268502ee24	-0.5256531331901368
5	0xbff34d24a5c1524a	-1.206333777886487
6	0xbfcbc6e35e7629ca	-0.2170070849645767
7	0x3ff8707df127460e	1.5274638576560196
8	0x3ff111b169b25c76	1.066819584729982
9	0xbfff1ab5f47bd526	-1.944021182074104
10	0xbfcb3cbc9d5a555c	-0.21279103930707322
11	0xbfe013aa3090ec37	-0.5024004887158132
12	0x3fefb101621a022d	0.9903571048781196
13	0x3f94cdd6ee7c92e8	0.02031646566969672
14	0x3fd6208b780ab9b2	0.34573637698022275
15	0x3ff0cc0d680785d2	1.0498174728057745
16	0x3fe11fe9f638d98c	0.5351457413697047
17	0xbfc6a13697275e50	-0.17679483776622584
18	0x3ff2877482918e4c	1.1580700970015583
19	0x3fbc001e2d404d50	0.10937679867520456
20	0x3ff097acab63ccb3	1.0370299048343383
21	0x3fcf350f15886d08	0.24380672980701257
22	0x400dedfcd70a5ef7	3.7412049102821316
23	0x3fd403c21fdd5d18	0.3127293883494118
24	0x3fbece1c4826a5c7	0.12033249627588481
25	0x400338ac6720921a	2.4026725823225776
26	0x40114fcb68595425	4.3279243759653
27	0x40078bf013c9af3b	2.9433290048526977
28	0x4001ac5aae182efb	2.20915733348181
29	0x3ffca21cc97f5656	1.7895782347672102
30	0xbff0a9fe08879304	-1.041502030676555
31	0xbfdbf7403e25acf2	-0.43696600026187504
32	0x3fe3b2fb43a34335	0.6155983277368252
33	0xbf87c4e087df4ee8	-0.011605981966489279
34	0x3ff9f5c72b35e4e7	1.6225043952857108
35	0xbfcbd1a3a6978f01	-0.21733518251777897
36	0xc00179cff0997a5c	-2.184478645023132
37	0x3fd23af704a85fb1	0.2848489327893687
38	0x3fef564e1d1ce116	0.9792852944001733
39	0x401099349606c9de	4.149614662327137
40	0x400a1e1192f55640	3.264681957351769
41	0x3fcdebf7669eecb2	0.2337636233404275
42	0x3fef11eee8d989be	0.9709391162726246
43	0x3fcb22b05f5a5805	0.2119961228933677
44	0xbfefc13f1ed480eb	-0.9923396684789884
45	0x3feb9e439021438e	0.8630693259275277
46	0x3ff27166a35cbc8b	1.1526857739770857
47	0x400b13788f7ea53e	3.3845072947048314
48	0x3ff606580632ded4	1.3765487901818476
49	0x3ff0ee2773b890dd	1.058143093142511
50	0x3ffcb54b919c840d	1.7942615211434287
51	0x401150ca1b0dd999	4.328895971985184
52	0xbfda06041bcf8386	-0.4066171905124566
53	0xbfc2c420944774b2	-0.14661032905761356
54	0xbfe4449d00e1c175	-0.6333756463264267
55	0x3fb0e031f1a3f357	0.06592094563889127
56	0x3ff56f2f67cb92f7	1.3396448187351646
57	0xbfd74ee22f23804d	-0.3641896686876905
58	0x4001ada09ccd69a8	2.20977900030012
59	0xc002e6d0ae3769f8	-2.362702714029407
60	0xbfea077a39ea22ef	-0.8134127741951412
61	0x3ffa5919156aaa80	1.6467524372662012
62	0x3fe5f03f96eec31e	0.6855771968749627
63	0x3f47278f12060c68	0.0007066200815163516
64	0xbfa6518411c95d1b	-0.0435906669342165
65	0xbfc3936342dee678	-0.15293541684313872
66	0x4011f69e68db1bf3	4.490838659642566
67	0x3ff5edec72ba57c5	1.3705868226584113
68	0x3fd4c51dbcfbfe31	0.32453101592543293
69	0xbfb5902cfcfee7cd	-0.0842311971345275
70	0xbfdec2e8729d6a0e	-0.48064624016629487
71	0xbff315cdf4581704	-1.192823366612573
72	0xbfedf43820889bc3	-0.9360619197294614
73	0xbfcdbe9218b388cc	-0.2323782559024664
74	0xbff2dcace6811af0	-1.1788758281779188
75	0xbf9fa68d06bf9a28	-0.030908778702633338
76	0xbf867a45f9256e3e	-0.010975405374373467
77	0xbfe849fafa0fec40	-0.7590308078791921
78	0x400735866567affc	2.901135246493139
79	0xc01141f02e9fd54f	-4.314392784600684
80	0xc003626e9fd52b8e	-2.4230625616959918
81	0x3fdd19563cf07884	0.45467143965823476
82	0xbfe91319bc399402	-0.7835816074626794
83	0x3fb300a574e912dd	0.07422861198672188
84	0xbfee9cd2d93f4ca2	-0.9566435092077834
85	0x3fe71eba23fee834	0.7225008681336988
86	0xbfd1f8e898e667ea	-0.28081717425959474
87	0x4008738036accbad	3.0563968917353663
88	0xbffd16534ab9a5ff	-1.817950527091284
89	0x3fe88439af7443c0	0.7661407877768553
90	0x3fee0ccbf21dc2ea	0.9390620926697839
91	0xbffc6ccd17c44192	-1.7765627792724428
92	0x3fe59c88c94f4ba1	0.6753581935721408
93	0x3fc0557045e0bb00	0.12760737812046585
94	0xbfcf3f9471068392	-0.24412780302830278
95	0x3ff2f54ac54b62e3	1.1848857600036176
96	0x400805e14fabe205	3.0028711532907004
97	0x3f761b36c33fe204	0.005397046963473876
98	0x3fb18b1e02ec57a0	0.0685290104996441
99	0xbfefc03935f496e1	-0.9922147802178324
100	0xbfe29220afa98b97	-0.5803378516105678
101	0x3ff157e596321762	1.0839591853159267
102	0x3fe416bda55c2224	0.6277759771047084
103	0xbfa4106f32234469	-0.039187884207088804
104	0x3fd2b8009a27080b	0.29248061231567196
105	0x400f660327b1a16b	3.924810705288271
106	0xbfc6648ba70366c5	-0.17494340567536973
107	0xbfc32cd89c6d20d7	-0.14980609548570697
108	0x3fa72ffd809c87d7	0.04528801150287592
109	0xbfe06a93f85dba11	-0.5130100108052053
110	0xbfef3c6db283be5f	-0.9761265265096418
111	0x3fe9f425c95f3897	0.8110531743093529
112	0x400f734c37b60d1d	3.9312977173264145
113	0x3ff481510a24eb87	1.281571426034789
114	0xbfc46628a7f7c067	-0.1593676395564245
115	0xbff3af6cd6fd6019	-1.2303284071003928
116	0xbfe4b7ff5ea95790	-0.6474606369836113
117	0xbfcbf57cda2474d3	-0.21842919017300363
118	0x3fb771a0e83472e6	0.09157758397163782
119	0x400976c97d70a3ff	3.183001499176043
120	0x4009c26c78f6ea73	3.2199334574082115
121	0x3fe5f6efab71fb74	0.686393580297461
122	0x40137d4e8863b39a	4.872369891248036
123	0x40010f38a330bb0f	2.1324322461363248
124	0xbfe2a2e7d42f50a6	-0.5823859352335787
125	0xc010db1ecbaa64af	-4.213984663271886
126	0xbff8edb9b021ef6e	-1.558038414018451
127	0xc01185e0c991bb4a	-4.380740308303595
128	0x3ffe6afbdf9d29a7	1.9011191115301729
129	0x400e73e6b95e9339	3.8065924150454546
130	0x3fe43c143f74d5a2	0.6323338736898914
131	0x3fffa1798aa7392b	1.9769225517407658
132	0xbfbdb3e8b1ad57fe	-0.11602644288845451
133	0x4013c6bae49d1977	4.944072315300551
134	0x401252e55b87b674	4.580953054579016
135	0xc00612221c85be97	-2.7588541248622493
136	0xbfe7936216c0651a	-0.7367411083570545
137	0xbff25acf99065bef	-1.147170636895449
138	0xbfe2060005d274c2	-0.5632324327194953
139	0xbff0eb3e61719d3d	-1.0574325376890805
140	0x400fbecd33876b66	3.968164827890564
141	0x3fe43424d6098fc2	0.6313652210633267
142	0x3feb717182f13ee8	0.85759807181054
143	0xbff0a7f34cf64118	-1.0410035139394207
144	0xbfbd1f1365c35530	-0.11375542864273736
145	0x3ffd52d9e1903c12	1.8327273188658677
146	0xbffb635d4cd0850e	-1.7117588997428501
147	0x3fede5ec7ff781ee	0.9343168734886242
148	0xbfe6dcb29262b649	-0.7144406184285766
149	0xbff8cd200a028963	-1.5500793829929413
150	0xbffdd07d9aa31874	-1.863401035357609
151	0x40081c3b92d643a9	3.013785502590015
152	0x3ff4965fc1a8f5e6	1.2867124142497857
153	0x400c0bdd2a0bf74f	3.5057929310704945
154	0x40066fd5f488ae23	2.8046073059283727
155	0x4008ed8c769cec63	3.115990568794176
156	0xbfea593d3950ae6d	-0.823393451636958
157	0x3fe7bba39b0c3271	0.7416551616930304
158	0xbfdbfb2e6518fde1	-0.43720588562788804
159	0xbfeb057d8285f7f6	-0.8444201993258946
160	0x3fdff5a7ee21fb6e	0.49936865096235905
161	0x3fe8cba2cb267b7d	0.7748578994540903
162	0x400e1c4356101b63	3.7638003085771046
163	0x3fcc8f3d0448de4e	0.22312128743372955
164	0xbff70932f4eefbb1	-1.439745861789316
165	0x3ffc16d785ba4c17	1.7555766319026185
166	0x4004b0a6a0b9a806	2.586255317369253
167	0x3ff9119354cf298e	1.5667908966885054
168	0x3ffd2097486422be	1.8204567744998452
169	0x3fe4d61cd30ab1a0	0.6511367914113642
170	0x4007b92898f1b45a	2.96540946471809
171	0x3fff5694f69b9292	1.95863815623412
172	0x3fc378bf2e9064b6	0.15212240003237348
173	0xbff6130754226b71	-1.3796456610204724
174	0xbff51f3e35a7b63c	-1.3201276870635317
175	0x400f4143a2d42b60	3.9068672867773984
176	0x3ff26efef4b37938	1.1520986136088833
177	0x3fe69f46fc5352d2	0.7069430282814102
178	0xbff58dfabb41b1e5	-1.347162944289374
179	0xc0082cfb60a93aa5	-3.0219638396877877
180	0x3fdee9883acd88e0	0.4830036710974479
181	0x3fe31429c9775c3d	0.5962113318336218
182	0x3fb400cdc5739f90	0.07813726492497453
183	0xbfde662c2887ed7a	-0.47498611410238534
184	0x3ff3afcefdf65a68	1.2304220123675353
185	0x3fd7d342a05a8ecf	0.37226930293603017
186	0x3fc3e22fa7f446ab	0.1553401537026294
187	0xbfe1df0b1e5d8839	-0.5584769814561305
188	0x3ff83cf44a59e34e	1.5148814110127264
189	0xbfd240ed57ad13c5	-0.28521283685796234
190	0xbfd79794bb40b3a3	-0.3686267689361619
191	0xbff679a213178711	-1.4046955819871452
192	0xc0083d3d24023be7	-3.029901772802521
193	0x3fe6634b5eb2e6f5	0.6996209001146939
194	0xbff1a385237b1c89	-1.10242189273575
195	0xbff2714cdae37027	-1.1526611852959918
196	0x40026f59f017b82c	2.3043707616079896
197	0x4002c7d924b34838	2.3475821368420178
198	0x3fe6334024e4bbff	0.6937561722351119
199	0x3fe8dd3294d8f2c8	0.7770016581703993
200	0xbffe447629759065	-1.8917142505170201
201	0xbff30399050099dd	-1.1883783526806078
202	0x3fdb8b6e1d0a7ee3	0.4303851398089888
203	0x3fa6462be2087e09	0.043504115430774766
204	0x4018a2b77c1fdcb9	6.158903064198221
205	0xbfd7dcb99c5c9689	-0.3728469874352887
206	0xbfc9a1ae653f53ea	-0.20024661964148943
207	0x3ff3ee0da1707095	1.2456184679240654
208	0xbfdc6924de06e486	-0.4439174812537846
209	0x3fe177218480ec82	0.5457923496209249
210	0xbfdb6dd0d8587b30	-0.428577624583272
211	0x3fd352ccab47d16b	0.3019286797200695
212	0x4005e8fc7064c267	2.7387627392529796
213	0x400240d188c2beaa	2.281649654811038
214	0x3fe98f6a5b449e8e	0.7987567694262496
215	0x3fe0329d4c2f7900	0.5061785209652783
216	0x4022286e75f3d47c	9.078967748655707
217	0x3fde242e7f9c9f66	0.47095835172739553
218	0x3ffb65cf7b7a5112	1.7123560736991448
219	0x3ff354d969a7d860	1.2082151534246108
220	0x3ffd588eaac13ef2	1.834120432864378
221	0x400a52ae864f194a	3.290371941841987
222	0x3fe82a8bd28c2389	0.7551936256651156
223	0x4006e73831110fd0	2.8629001458484495
224	0x3ff92e95a104e690	1.5738731660661962
225	0xbfec72ff06656654	-0.8890376210139928
226	0x3feb918c20719cb7	0.8615170129459305
227	0x3fe8f5eab5fe3c6b	0.780019145446102
228	0x400f5ef97394d99f	3.9213742284584465
229	0x3ff8f09c3432bed9	1.558742717646899
230	0x3fe6bb864d8752dc	0.710391189024985
231	0x3fff77576236a786	1.9666360699143026
232	0x3fd3234882fd15f9	0.2990285185991009
233	0xbfd59bcdb4c2b29e	-0.33763449337383544
234	0x3fd53583e39f1fb6	0.331391308104226
235	0x3fc3fc6680bc7fe5	0.1561401489825577
236	0x3fb46ef7c9248c91	0.0798182359763351
237	0x3fd15cb2ce0d741d	0.27128286478347424
238	0x3fce1305a9a4c311	0.2349555090272806
239	0xc002e254b088a2a7	-2.3605130950639537
240	0xbff053dac5d2f000	-1.02047230982771
241	0x3fedc4766718538b	0.9302322400641158
242	0x3ff63df2f4ac401f	1.3901242787869774
243	0xbfea67ea170ccbd2	-0.8251848650164624
244	0xbff056dad2bb7883	-1.0212047797899977
245	0x3fd8879a6737fad8	0.38327655868481036
246	0xbff32ace160eb4e6	-1.197950445329576
247	0xbff0b02ccdd7f088	-1.0430114784967675
248	0xbfd8a9aa945b18ae	-0.3853556107318451
249	0xbfb291b41708ae3b	-0.07253575861312182
250	0xc0006958c407bd4e	-2.0514388384687328
251	0xbfc92870953003e1	-0.19654662403630055
252	0xbffda2c4c40eadfd	-1.852238431786531
253	0xc0017381a5301850	-2.181399622469179
254	0x3ffdf94922f8d199	1.873360764130757
255	0xbff92a91904bc76c	-1.5728927265704113
