Results/item_bias.npy (npy, 72744 bytes, 1 tensors)

array f8 [9077]
0.7875600421226774 -1.3653695430927988 -0.2039554210827567 0.2260158929985551 -0.53709834789155 -1.210859589837205 -0.23202134504152042 1.532704007725497
1.068366579855137 -1.9485508229165835 -0.2219497130951703 -0.5031856199323945 0.9972132393272157 0.020275414812455577 0.3586084043297636 1.0598741515264916
0.5274998338105125 -0.17674420795512308 1.159685599599458 0.10754479119925399 1.0420185428392765 0.24147756855509764 3.70353662860056 0.3044752723314373
0.12098250758765772 2.405011562058381 4.305163788431013 2.937597015589494 2.204586335911206 1.7770002095341264 -1.041110226870268 -0.44331520310731765
0.6209533256828013 -0.013889590323091044 1.6122842627154907 -0.21953712897579297 -2.189527615353026 0.2850880381050088 0.9695127947890915 4.1687174068532435
3.2650522264999453 0.2365309438080264 0.9820643284734347 0.19802409831027293 -0.9893845070906818 0.8627398742158722 1.1627945512790914 3.3940762441109
1.3500875915420842 1.0583695191267808 1.7848039720870739 4.304448645899007 -0.41139281442819997 -0.15263580826022327 -0.633273416810665 0.0660110830976534
1.33936431330312 -0.3787316873158649 2.194345220121614 -2.3704569499668686 -0.8218651050618023 1.661300154381395 0.6911207510781292 -0.019706729726117624
-0.04348871280992975 -0.15244068799703228 4.467053746989015 1.374573403090633 0.32200348268626405 -0.08816317451752127 -0.4911529070713838 -1.1936526320386593
-0.9338883465300316 -0.23332532700308406 -1.186780519574354 0.008230603569432478 -0.010547691552816516 -0.7564770602626297 2.850937947464696 -4.33219565926656
-2.399361093273933 0.4507823154186702 -0.801315311421362 0.07546167446867369 -0.9623599313420205 0.7218816373135979 -0.2908703165854121 3.04772349638078
-1.8091320582094013 0.7658268476652912 0.9363934328705814 -1.7813075262381854 0.6674534627541816 0.12473601530685248 -0.25195920543964945 1.1840841600133574
2.992860541718651 0.0047469977407282905 0.06886896417446163 -1.0114303914307239 -0.5692443322790781 1.070356983237803 0.632372385603717 -0.040871343993152016
0.29666197270060046 3.8835257888063976 -0.17051731193798841 -0.1325804799001896 0.04389504225553528 -0.5136421436214561 -0.9985994301920215 0.8104565962977452
3.9046819289557453 1.2892133214476662 -0.163568859644869 -1.2348050520780858 -0.6301105834949604 -0.20879131870090833 0.0932073245989826 3.1850144453494393
3.197293609506968 0.6976701872617009 4.8649913902352 2.1084528093584405 -0.5865473844926752 -4.208372457693698 -1.5683260141481372 -4.401931152339434
1.8976335138741338 3.7729990053813376 0.6201627364664289 1.9891720275649092 -0.11276155022648232 4.926420111347959 4.569735233922599 -2.768114282949629
-0.7367932429325081 -1.15896807185369 -0.5842413589373142 -1.0632471671268435 3.937582955534967 0.603452986461382 0.8573948410065113 -1.0606706890902917
-0.1130538269512973 1.8359366390423377 -1.7223571232746564 0.9359722707107513 -0.7153373340865383 -1.5488926957723366 -1.868405077254308 2.9915436689006083
1.2830289106245691 3.4943551528525783 2.8018180835688 3.100968585679511 -0.8495985834954641 0.7463107761617952 -0.44143226566708244 -0.8463859626664579
0.49677109136088843 0.7675198735016538 3.7553066009451515 0.22397269249397173 -1.4394173751887793 1.7562385716689688 2.594093041058347 1.5781410492429655
1.798373250656984 0.6536076679827699 2.952363713663837 1.9625408566243396 0.1457966510406014 -1.39976201896875 -1.3160111519327011 3.887671919321553
1.1504743616864208 0.7109439575609359 -1.3534589436899294 -3.00773313195879 0.48712019705431786 0.6018479895193416 0.07954146289502734 -0.4738735853662427
1.228896486157004 0.37733464945474315 0.1556182179921912 -0.5686240984257593 1.523168952279373 -0.28297003082783967 -0.37777901496373256 -1.422243151976277
-3.0443397088218433 0.6833516953991203 -1.1017752976113449 -1.1532517287456496 2.2903527933022887 2.331428837036679 0.7041524494983409 0.7822468505277786
-1.9051988066764787 -1.1911936246308894 0.4331351689969675 0.04602490683308833 6.15505122161054 -0.3679855879871961 -0.20763023272544898 1.2591150693301332
-0.44374080301953894 0.5464678252737794 -0.43599467744749143 0.30376364035603226 2.7247890514585005 2.284808690656429 0.8056959620255628 0.5147261896826104
9.062744463109235 0.47334468047559985 1.6868877455283475 1.2026658623186295 1.8470477257757085 3.291568403116827 0.7520634214833544 2.862560963751484
1.5902177289595212 -0.9030294551590574 0.871776192919332 0.7929241069025074 3.92801419995173 1.564423985587683 0.7190206170643699 1.9649016708420846
0.3027051952768386 -0.34194445078548474 0.3349747947544242 0.15859609572032468 0.0821814973115503 0.2691286215115198 0.23761101388483566 -2.371423371642654
-1.0355141195592128 0.9277784060645529 1.3816634040892966 -0.837696665918298 -1.030248116436115 0.387723200603685 -1.207781071673404 -1.060467499939303
-0.3880515016090776 -0.07099105285219116 -2.040263381755989 -0.20653012686868094 -1.8646457402848409 -2.201247182497328 1.8698785635443633 -1.5776607475539004
00000000: 7cb4 111e b133 e93f c99b e8bb 8dd8 f5bf
00000010: 7d38 b213 361b cabf 350b 67ba 16ee cc3f
00000020: 3bc1 dddf e82f e1bf 5c61 264e ae5f f3bf
00000030: 85b0 761c e0b2 cdbf f610 3aa3 f485 f83f
00000040: fedf 098e 0718 f13f 6f54 b0a0 432d ffbf
00000050: ecd7 8c23 d968 ccbf f8aa adba 181a e0bf
00000060: 3c8e 41bd 2be9 ef3f 4b1b 210e 14c3 943f
00000070: 6eb1 2aaa 70f3 d63f 98e9 2a99 3ef5 f03f
00000080: 1d92 db54 47e1 e03f ce5b 76e0 8d9f c6bf
00000090: c9bf be7c 128e f23f 6152 0e31 0e88 bb3f
000000a0: d11f b5a2 1bac f03f f9b3 d4a9 bce8 ce3f
000000b0: 2105 dbcf d7a0 0d40 7dab 46da 857c d33f
000000c0: b820 7aa9 b5f8 be3f 4a57 acb3 763d 0340
000000d0: 4cf0 2cdb 7c38 1140 cb45 36dd 3280 0740
000000e0: a993 2f29 fea2 0140 91f2 8ec5 976e fc3f
000000f0: e805 7f32 63a8 f0bf fe97 caba 465f dcbf
00000100: 5ccd 4482 d9de e33f d644 8a41 2572 8cbf
00000110: ff7e 4395 eacb f93f ceb8 9aea ca19 ccbf
00000120: 790a ed0d 2784 01c0 7e13 09e6 e13e d23f
00000130: d186 55b2 3f06 ef3f 6ccd 8241 c4ac 1040
00000140: dd64 a4b3 d31e 0a40 dbe0 125e a546 ce3f
00000150: 4292 ab2b 126d ef3f 5d00 0889 da58 c93f
00000160: 31f4 a3b2 09a9 efbf 5dcb 16a7 909b eb3f
00000170: ff5e 9b75 ce9a f23f d3b1 2472 1127 0b40
00000180: dd89 4672 f599 f53f 6db9 7be0 14ef f03f
00000190: 7728 1e9c 8e8e fc3f 77ca c562 c137 1140
000001a0: 34d3 f186 4254 dabf 408d 56f6 9189 c3bf
000001b0: 6f18 d49c c643 e4bf 2bf5 1333 1ae6 b03f
000001c0: f70f 3146 096e f53f 21c1 bed4 233d d8bf
000001d0: 3573 e4dd 048e 0140 0878 2522 b2f6 02c0
000001e0: 75d9 7e0c b84c eabf 8686 7e78 af94 fa3f
000001f0: f0f5 ee43 a91d e63f 9a38 bd3e 002e 94bf
00000200: c40e 870e 2744 a6bf 8574 c32c 2d83 c3bf
00000210: 162b 6356 43de 1140 719c 43ae 40fe f53f
00000220: 937a d57e b49b d43f cda8 439f dc91 b6bf
00000230: 303e 4d9a 0c6f dfbf ee3e 9680 3319 f3bf
00000240: b6c8 4ed0 69e2 edbf a443 67b4 9add cdbf
00000250: b8a0 f191 0dfd f2bf 31a5 41e9 34db 803f
00000260: b221 2432 079a 85bf 2712 4061 0f35 e8bf
00000270: 364a fa8d b8ce 0640 30b1 5119 2b54 11c0
00000280: 3340 973a e431 03c0 72a7 9511 9ed9 dc3f
00000290: 7ed7 0a02 60a4 e9bf 08c1 f1cf 7451 b33f
000002a0: 7708 030e a7cb eebf e608 fb84 a719 e73f
000002b0: 0123 4788 9e9d d2bf 59a6 41db bc61 0840
000002c0: 0679 0275 34f2 fcbf dee0 234e a781 e83f
000002d0: 44c9 4b5c eff6 ed3f 98fc 1452 3c80 fcbf
000002e0: 7f32 445d c75b e53f 5554 6012 b3ee bf3f
000002f0: 2e86 d280 1920 d0bf 0781 6f3b 02f2 f23f
00000300: 155d 21de 60f1 0740 8450 cf80 9671 733f
00000310: 97b5 d67c 65a1 b13f cb01 56a2 d12e f0bf
00000320: ce4d d2e3 3f37 e2bf 4ad3 e0a4 2e20 f13f
00000330: 87f7 6103 653c e43f 599b 96bb 16ed a4bf
00000340: b2d1 ad7f 82fc d23f c6c4 00f8 7511 0f40
00000350: 7a76 16e3 82d3 c5bf bb30 a1ac 65f8 c0bf
00000360: 1c5c e335 6979 a63f 9972 16a6 c16f e0bf
00000370: b353 cfca 86f4 efbf 2ca4 fdab 42ef e93f
00000380: 4e2d 11e1 c93c 0f40 d5f6 d225 9ea0 f43f
00000390: 08cc 680b d3ef c4bf 79c6 39f1 c2c1 f3bf
000003a0: bb2d 9fab dd29 e4bf aa2a c186 acb9 cabf
000003b0: 2e79 e66a 6fdc b73f e381 80da e87a 0940
000003c0: 7956 04ac 0e94 0940 c9dc b56d 5053 e63f
000003d0: ec86 914d c075 1340 a2d4 aa81 1cde 0040
000003e0: 7e69 3e05 ffc4 e2bf efb9 ec96 5fd5 10c0
000003f0: 6eb7 c304 dd17 f9bf 752a 0ad7 939b 11c0
00000400: a220 9ef5 b45c fe3f 82a0 3f1a 1a2f 0e40
00000410: 1947 ea85 5fd8 e33f 1326 480c a6d3 ff3f
00000420: 9410 78e2 f0dd bcbf 7862 4279 a7b4 1340
00000430: 4f4e 54ac 6847 1240 88df e619 1925 06c0
00000440: 8ee2 496c cf93 e7bf 3584 db1a 228b f2bf
00000450: 5167 33ef 1ab2 e2bf b4fd 2576 0f03 f1bf
00000460: 477a 1a7e 2b80 0f40 2ace 30a3 7c4f e33f
00000470: 0c3a 3c4e c76f eb3f 557f 17d4 81f8 f0bf
00000480: f186 7179 18f1 bcbf a170 e318 ff5f fd3f
00000490: e6f4 c757 c68e fbbf 114c 951e 7cf3 ed3f
000004a0: e44d f01e 0be4 e6bf faaf 15b5 43c8 f8bf
000004b0: 3ccd e7b8 fce4 fdbf 29df 7372 aeee 0740
000004c0: cf47 af52 4987 f43f 22e3 7079 70f4 0b40
000004d0: b627 7299 1f6a 0640 c255 2b9e c8ce 0840
000004e0: 03e9 5a5e e92f ebbf 9d8d 0823 c7e1 e73f
000004f0: 891d 1c1e 6d40 dcbf ed44 ae03 9815 ebbf
00000500: 4f91 bff9 18cb df3f 7507 77d6 858f e83f
00000510: 4a19 ec2f de0a 0e40 ceb5 ba1e 23ab cc3f
00000520: f4ad 7b83 da07 f7bf ecab d49d 8d19 fc3f
00000530: a803 31da b3c0 0440 1f94 2fd4 1040 f93f
00000540: d52a 9907 23c6 fc3f 8bd3 cca0 5aea e43f
00000550: 93aa e0dd 709e 0740 ee3e c43d 9166 ff3f
00000560: 76f8 0af4 76a9 c23f 9c75 dadb 6c65 f6bf
00000570: 4a8e abb5 610e f5bf 4c82 38bc f319 0f40
00000580: 4246 e5cd 5768 f23f c16a e08a 0dc0 e63f
00000590: ff07 ba90 c4a7 f5bf 87de 6663 d60f 08c0
000005a0: 9270 e430 fa2c df3f fac3 04b7 5642 e33f
000005b0: 5465 cf4d d45c b43f 8e85 e5df f153 debf
000005c0: 1b6b a35c 8fa9 f33f 5891 c33a 4026 d83f
000005d0: e718 783a 4ceb c33f 8c98 4e2a 2b32 e2bf
000005e0: ed28 4568 e65e f83f f2d5 0955 2e1c d2bf
000005f0: cc98 9808 882d d8bf 492b 0b09 82c1 f6bf
00000600: 8d6e fac6 ce5a 08c0 d6f8 ec5f 04de e53f
00000610: 9680 6c22 dfa0 f1bf d849 b015 b873 f2bf
00000620: dd48 3c7c a452 0240 d830 8029 c4a6 0240
00000630: 1ccc bfb7 6a88 e63f 504e 0d8c 2a08 e93f
00000640: f7db 70be b17b febf d8e4 cf0b 210f f3bf
00000650: dfb8 6592 7cb8 db3f 4d93 4c9b 9390 a73f
00000660: a616 58bf c59e 1840 457a 736c 138d d7bf
00000670: ebbb 9ba1 a093 cabf 74c7 cad7 5525 f43f
00000680: 21a9 37d3 3f66 dcbf 7cbf bb17 aa7c e13f
00000690: a87d 3738 56e7 dbbf 91c1 420d dd70 d33f
000006a0: df1a c433 5ecc 0540 36e3 5fc7 4947 0240
000006b0: dc68 ede5 42c8 e93f af9b e20e a378 e03f
000006c0: 551e d20a 2020 2240 9835 987c 474b de3f
000006d0: 2a14 3101 7efd fa3f 54c9 2a8f 1e3e f33f
000006e0: bbb9 85ea 818d fd3f 4078 9fd0 2155 0a40
000006f0: 6e3e f94e e710 e83f 70f3 d05c 86e6 0640
00000700: 9868 3625 8871 f93f 8273 2707 9ee5 ecbf
00000710: 2aa3 c02f 97e5 eb3f 9f66 6b60 a25f e93f
00000720: 5a21 78b5 926c 0f40 4bd5 f271 e107 f93f
00000730: 611e 6e86 3702 e73f cdf5 01bc 3c70 ff3f
00000740: aec5 829c 855f d33f 9807 4bfa 6ae2 d5bf
00000750: 9517 1d1f 3a70 d53f ae2f 327a e04c c43f
00000760: 7617 4abb d809 b53f 7fcf f340 6739 d13f
00000770: bd02 e7a6 096a ce3f eb66 11d1 acf8 02c0
00000780: 4ed9 e040 7791 f0bf b26e ff56 5cb0 ed3f
00000790: 074c ea15 4b1b f63f 63cb 023d 69ce eabf
000007a0: 4bbd ed72 e57b f0bf cf91 9ff8 74d0 d83f
000007b0: a90a b93e 1253 f3bf ee5c ebc4 acf7 f0bf
000007c0: 8dc7 24f7 d5d5 d8bf 750b 4f3a 782c b2bf
000007d0: 5af2 9e9b 7552 00c0 6615 4546 946f cabf
000007e0: b862 92c5 96d5 fdbf c4e7 997b 279c 01c0
000007f0: c9a1 dec8 05eb fd3f a4d4 2e32 193e f9bf
