Results/item_bias.npy (npy, 72744 bytes, 1 tensors)

array f8 [9077]
0	0x3ff0ff59b38eb920	1.0623414052930187
1	0xbff4e65b0e56d2f3	-1.306239181530313
2	0xbfcaadabc8f05ccb	-0.20842501937361244
3	0x3fe0175fe27f95d3	0.5028533386036379
4	0xbfdbdefb74e7f44f	-0.4354847566281181
5	0xbfef526e86974bc9	-0.9788124684076759
6	0xbfd6987cca9a2629	-0.3530570963417597
7	0x3ff6abe1cdc3c089	1.4169633901292704
8	0x3ff3683f9d8b5a1b	1.2129512933803486
9	0xc000ae27d735b6ec	-2.085036927534807
10	0xbfa40e799b9048fa	-0.039172935714434545
11	0xbfe2def936a9eb63	-0.5897184436465576
12	0x3ff3b93a591acf2a	1.2327216606763138
13	0xbf500a78b4a86357	-0.0009790591017290928
14	0x3fdfbbce0921cc08	0.49583769695090085
15	0x3ff0c27e402332ce	1.0474836831446512
16	0x3fdc6eb56620de60	0.44425711606479545
17	0xbf72d39506311ae0	-0.004596311689118976
18	0x3ff4635a0e2fb42d	1.2742558054117226
19	0x3fd05ade38686ea1	0.25554614552104665
20	0x3ff688671f7fd948	1.4083014707990333
21	0x3fd1e5dbbceebfb5	0.27965444040728055
22	0x4010a4f7b9e3340b	4.1611012501644025
23	0x3fe1015c23da5ebb	0.5314160061124861
24	0xbfc5e58f5ee831ab	-0.17106811651355022
25	0x400495d7e541db06	2.5731656943056604
26	0x401463ec1b3cb621	5.097580361919911
27	0x400af4b1751cded0	3.3694790982661758
28	0x400c40cea386b14d	3.5316441321830667
29	0x4002072824f802ae	2.2534945381342686
30	0xbff226825b20d04d	-1.1344016608900518
31	0xbfa24522e1f2c027	-0.03568371780545503
32	0x3fe7ccc2874823f4	0.7437451021406773
33	0x3fc64f652e8beb0e	0.17429795048504854
34	0x3ffcac57a4dde92d	1.792075771342364
35	0xbfb0e964965f786d	-0.06606129332746642
36	0xc001cbca0bc86928	-2.2245064659629357
37	0x3fd123f65b3cfb29	0.2678199664114112
38	0x3ff535533a3c225d	1.3255188250351673
39	0x40116d1b8f338742	4.356550443191567
40	0x400d23b6b311a90f	3.6424383153690836
41	0x3fbf9fe14fcf832c	0.12353332708836423
42	0x3ff2d27959d70f4f	1.1763852605226537
43	0x3fe48473c73ecc3d	0.6411684886464922
44	0xbfeec3e95fa099d9	-0.9614149921151763
45	0x3ff06ab1b3057968	1.026048373510628
46	0x3ff4d4053d8006db	1.301762809977325
47	0x400df5dbbfef3490	3.745048045623271
48	0x4001c14ab04da6fc	2.219380738610992
49	0x3ff74b8754668a2a	1.455939607324249
50	0x4000053ef8756967	2.0025615130263534
51	0x40134299aa241d2d	4.815039308981153
52	0xbfd5b43c94b6d38b	-0.3391257717406055
53	0xbfd054bc72386794	-0.25517188219384335
54	0xbfe86e3a136d6614	-0.7634554271164142
55	0x3fbeb2b3ff5856b3	0.11991429313669748
56	0x3ffaf52d3949a482	1.6848575818824263
57	0x3fbeefe381696970	0.12084791097132608
58	0x400639753abe0d85	2.7780556287049785
59	0xc00459ad2550634e	-2.5437872805745547
60	0xbfe991da542e946e	-0.7990543026140935
61	0x3ffae183aedd93fa	1.680057223385346
62	0x3fe8a09e7e2eea48	0.7696068253056376
63	0x3fd21518e8752605	0.28253767682016956
64	0x3fa2765b77cd927c	0.03605924451293149
65	0x3fb86ae28742f595	0.09538093378338026
66	0x4016aaf51ad10c03	5.6669506254284014
67	0x3ff79109b2415503	1.4729096377462276
68	0x3fda9afae753b085	0.41570923414725086
69	0xbf84383724f4ce00	-0.009872847380939298
70	0xbfa04b6d36179700	-0.031825459340138806
71	0xbff00138d83e51f3	-1.0002983519563002
72	0xbfe0bacd1ec90458	-0.522802887084377
73	0xbfc38304c21de6ee	-0.1524358699642145
74	0xbff0bf13156ad18a	-1.046649058972522
75	0xbfe40443ec29c5f5	-0.6255206692277954
76	0xbf9422f221b2a64c	-0.019664557749513187
77	0xbfd341b9445e0ca2	-0.3008864562654684
78	0x400eda2244f28675	3.856510676051409
79	0xc013083f4bbe4c52	-4.758053954591633
80	0xc006394b0398c3cf	-2.777975109195246
81	0x3fd180f40ba90e17	0.27349568499286775
82	0xbff10d86e2abd683	-1.065802464899577
83	0x3fc4b640d4036b8d	0.16181192733969532
84	0xbff0653e8fdb50c5	-1.0247178668405905
85	0x3fe5e3fcec52ed26	0.6840805640889911
86	0xbfd40f48fe8fc7a1	-0.31343293056044713
87	0x4009af2886921bbd	3.210526515325425
88	0xbffcb460e15b71de	-1.794037704755389
89	0x3feb4fcac422c354	0.8534902411248404
90	0x3fe9ec9c337564e4	0.8101330761957368
91	0xbffdda1475ce16fa	-1.8657421685942936
92	0x3fe9d54f95b5987d	0.8072889255534076
93	0x3fe44a9d83f29ab0	0.6341083123305307
94	0xbfcaca0a68d29089	-0.20929079168593415
95	0x3ff920f2eee694fe	1.570544179159071
96	0x400b06e325e15448	3.378362937869074
97	0xbfa1ffb943747d94	-0.0351541418879108
98	0x3fabefb787ec9760	0.054563269941623416
99	0xbfec5037b8f4a729	-0.8847921955504933
100	0xbfe715deae6908d3	-0.7214196592761034
101	0x3ff478afce3e265b	1.2794645363195716
102	0x3fe477127a076d5d	0.6395351775530959
103	0x3fbf11a51869da6c	0.12136298986465882
104	0x3fbbb5d11feb5500	0.10824305562285375
105	0x401807084955c66f	6.006867547855662
106	0xbf71cfee63693450	-0.00434868927420691
107	0xbfc9bee0ecc5291d	-0.20113765297930622
108	0x3fd206d4840d32bf	0.28166687865886425
109	0xbfdbd24d2a3c3334	-0.4347107803776453
110	0xbfe8d1fb771eebf8	-0.7756326033189671
111	0x3ff1acc8161ab0f3	1.104683004708076
112	0x4017b24074eb706b	5.92407400786406
113	0x3ff77b36f76bf366	1.4675817170056802
114	0x3fae5dc78320305f	0.0593092296186064
115	0xbff323cba2fa429c	-1.196239124900024
116	0xbff1700857a5441d	-1.089851705899725
117	0xbfd7dbd0943d5806	-0.37279142834211176
118	0x3fb618fd8bfdd62a	0.08631882350695066
119	0x4010b058732cd70f	4.172212409602948
120	0x40116e026ef9e827	4.3574311580687555
121	0x3fe988549ef3a4cc	0.7978919128919642
122	0x401773e33c5bd270	5.863171523193714
123	0x4000aae0753d461b	2.0834359320949836
124	0xbfe26493109e4903	-0.5747771572662547
125	0xc011b5ae35afbe28	-4.427422369815339
126	0xbff91cf943227217	-1.5695736525004855
127	0xc012d7991f8bfa1c	-4.710545056265371
128	0x40022ee2b1f20208	2.272893324087139
129	0x40121e129b7c3cef	4.529367856462371
130	0x3fe7631fec329d01	0.7308501828419197
131	0x4000c15e15a11de4	2.094417733172792
132	0xbfb9477b3e071a20	-0.09874696983670406
133	0x4018e08076ed96a7	6.219240053416491
134	0x401537b9806389f5	5.3044185696367
135	0xc007f96ec37f0e74	-2.9967932961606554
136	0xbfe5f8a2b202ff44	-0.6866010166922725
137	0xbff956f50c7711b3	-1.583729790393687
138	0xbfc04996402a8478	-0.1272456944762188
139	0xbff3f18d3e7219eb	-1.2464725913320034
140	0x401712b9bb9cb192	5.768286639632054
141	0x3ff26feadaee13cd	1.1523235847428055
142	0x3ff3d8ac9fc0ff4d	1.2403990021120592
143	0xbfeea5d34ecc56d9	-0.9577423609759662
144	0xbfc2e76bf3edba09	-0.1476874295289721
145	0x3ffc8d90ec999812	1.7845620386301602
146	0xbff54604a13f5c85	-1.3295942591410335
147	0x3ff7b86ca54873c8	1.4825254875533904
148	0xbfe68e8585b4d03b	-0.7048976527644365
149	0xbff9e3c5d53df933	-1.6181085901039978
150	0xbffe63a4401a91b4	-1.8993265632681018
151	0x400b4d94307c24dd	3.4128803050885907
152	0x3ff88247759d5f67	1.5318064302755035
153	0x400e721feafd7eb4	3.8057249411211505
154	0x400b3b9d2ff37c42	3.404108404748997
155	0x400dadcc14ae00de	3.7098619094468708
156	0xbfed7355c2dd60e2	-0.9203289800598464
157	0x3fea19ee3cdfab0b	0.8156653584422612
158	0xbfd934da4d1b4435	-0.3938508751862771
159	0xbfef1c6fc749bd42	-0.9722212688774692
160	0x3fe2155da15598ab	0.5651081229268774
161	0x3ff81b559b36225e	1.5066734373996478
162	0x4013dcc06bd341c4	4.965577778596018
163	0x3fdd6583f0ddd75c	0.45932100793958397
164	0xbffa06ec05ccdfca	-1.626689932496435
165	0x3fffe491cd3b545f	1.993303109823749
166	0x4007b156656e9069	2.961590568958901
167	0x3ffe8fde676ef01f	1.910124210392503
168	0x400361455ff3089e	2.4224956031840312
169	0x3fe9d056bfbd40f1	0.8066819901378307
170	0x4008eff569c07309	3.117167307077015
171	0x3ffcca4b27952a85	1.7993880792807044
172	0x3fb794e263685171	0.09211554457607975
173	0xbfee57d7fa055939	-0.9482231028767166
174	0xbff35ee3875be0bd	-1.2106662070710137
175	0x40136cf43cf5a771	4.856400444501433
176	0x3ff2f2bd693fca96	1.1842626677795685
177	0x3fe8e39432264dcf	0.7777806262478694
178	0xbff3f92dea235a58	-1.2483348032016206
179	0xc005ff8b49e10915	-2.749777390651739
180	0x3fdc04107954fb71	0.43774806832146057
181	0x3fe289e2c0788609	0.579331756515047
182	0x3fc7b69996854b83	0.1852600083317065
183	0xbfe0f12d34acb06a	-0.5294405010986456
184	0x3ff414530de421a3	1.2549620192167843
185	0x3fd5b069b981f453	0.3388923942182533
186	0x3fc55f06beb4c0b8	0.16696247398204433
187	0xbfd57ff1ccd14889	-0.33593411447248706
188	0x3ffe542dbc42562a	1.8955514291641387
189	0xbfd33cc0772bb5d3	-0.30058299672859085
190	0xbfd253e59c4a5900	-0.2863706613801611
191	0xbff5ccd296edf526	-1.362505521362729
192	0xc0065a63052fe8be	-2.794134178661891
193	0x3ff50d9a69ccaaa5	1.3158210881034986
194	0xbff3db2045df5bde	-1.2409975747484547
195	0xbfef295436533394	-0.9737950383219975
196	0x4004dfbc958412f0	2.6092464142733363
197	0x400423ea273cc36f	2.5175364556711695
198	0x3ff28076b5125d14	1.1563632081141053
199	0x3fe9467ac5e5f688	0.7898534646225963
200	0xbffde7a2524a308a	-1.8690512861676631
201	0xbff192cdee137992	-1.0983409213873512
202	0x3fdddbf8e163ca65	0.4665510369369826
203	0x3fd405010dcf8f6f	0.3128054270621225
204	0x401f1e4db7e35acb	7.779593346835735
205	0xbfd11749cb7a0b97	-0.2670464026525052
206	0xbfbccae6347e8e53	-0.11247099668121878
207	0x3ff8a63e7edc6e83	1.540586944151898
208	0xbfdd146d39666eb9	-0.4543717442081561
209	0x3fe3cb3c3c942e67	0.6185589965038617
210	0xbfd9343a5a60b68a	-0.3938127405734596
211	0x3fd66ec12e869276	0.35050992530367553
212	0x400b1f7e54d59fbf	3.3903776767437814
213	0x4002a4de0c40c34d	2.3305016476883
214	0x3fe9be3150caad72	0.8044668748820369
215	0x3fe0db1108becb6e	0.5267415209585644
216	0x4027de39c8d05790	11.934034610206965
217	0x3fe1d7a72d1de58a	0.5575748330294783
218	0x3ffcf3407da5209d	1.8093876750954572
219	0x3ff6f996f7f01eb6	1.43593499041337
220	0x3ffe16bf1ca3ee09	1.8805533522380549
221	0x400cbe05c8f72f8b	3.5927844715533346
222	0x3fe98654ae67ae4d	0.7976478010509226
223	0x400c740f809e3a21	3.5566701935088223
224	0x3ff70a3f3bc9ce07	1.4400017104607075
225	0xbff0e46dae772a54	-1.0557686629350842
226	0x3fea10fbca300332	0.8145731877303659
227	0x3feee1489c1f3d85	0.9650004433878371
228	0x4012de0b3c9f9b63	4.716839740029942
229	0x3ff94ad0746fc6a1	1.5807652042680405
230	0x3ff162e5412f15ad	1.0866444154974986
231	0x3fff2e4b03e7469e	1.948802008865108
232	0x3fd219102370da44	0.2827797266103611
233	0xbfd18ddbcd6584c1	-0.27428336199052344
234	0x3fd488486bb8c0a0	0.32081804771133626
235	0x3fc56fde99769bc6	0.16747648709607982
236	0x3fb4a2c101e5ba60	0.08060842796633372
237	0x3fd450730612113c	0.31741023629026066
238	0x3fcb4ea7ad0cc28a	0.21333785962771784
239	0xc004ec28ea2313df	-2.6153124134020653
240	0xbfe559b7552ca032	-0.667201677661984
241	0x3ff23e1a9a6c5157	1.140162089553163
242	0x3ffbb181a0a44472	1.730836513048669
243	0xbfef19e13e457bd3	-0.9719091621626553
244	0xbff0a28b707afbfb	-1.039683761002151
245	0x3fd6dfd382bd782a	0.35741126792516076
246	0xbff168f05ef60784	-1.088119860593424
247	0xbfeff8b342031e51	-0.9991089143085877
248	0xbfd814a4a14af21e	-0.3762599539875583
249	0xbfc16b3ded8044c0	-0.13608526322108183
250	0xc000ead0316c90c1	-2.1146549092537446
251	0x3fb1dcf9c874a376	0.06977807182250992
252	0xbff8333c1daa2ad7	-1.5125085028436638
253	0xc000ffd8c45a3616	-2.124925168993978
254	0x40002502649cef34	2.018070970572717
255	0xbff542468e16b201	-1.3286805677736313
