Results/item_bias.npy (npy, 72744 bytes, 1 tensors)

array f8 [9077]
0.8499499403492948 -1.4699120433751673 -0.21016998957511746 0.3605845228325041 -0.6201887130797722 -1.263655190773557 -0.31552520850797755 1.631160940653798
1.119830852624819 -2.093915477801859 -0.18168669142818164 -0.506398068635569 1.1270850985691507 0.02152926208236692 0.4144232887877179 1.0288557215986696
0.47859977839295725 -0.21297528770673627 1.197739845209733 0.08722958299220679 1.020553211353721 0.2750130702100035 3.620265558987175 0.2875190293136218
0.0819511525956998 2.4016475853480106 4.242178361181951 2.953058883999497 2.14217286170361 1.8043895244884844 -1.0527838222416122 -0.4965183493302535
0.6623972437360713 0.031149278457193008 1.5438434301656818 -0.24475368910715856 -2.296810273742622 0.3091897525361109 1.0289387631410476 4.229395198501983
3.341028153092385 0.26438445377794373 1.0709549498651116 0.21417561796778406 -1.0457861888051525 0.8833869791697987 1.2362839563143875 3.5281854352890565
1.2845078804403915 1.0103169102312828 1.7324548818384446 4.321900806920506 -0.4001818192252121 -0.21728205012623003 -0.6370434418969685 0.08246745323832182
1.3813789993896999 -0.37773341948588635 2.1188703334684207 -2.6034034777863315 -0.908490459071673 1.6957727348905371 0.6969795687138838 -0.13461239147688758
-0.04032212210631308 -0.03535075355247898 4.332812208842947 1.4973328270324413 0.262241144337078 -0.102006706629631 -0.6262669593227617 -1.2325219126432811
-0.9371415661999968 -0.25954434558242756 -1.2469005298882219 0.16374058168558264 -0.008695474296702477 -0.7477559006555886 2.711285753875368 -4.593230511246283
-2.2731911087298005 0.4521360428497511 -0.8657866759787707 0.08913379266585121 -1.030751309501945 0.7443565246662206 -0.404785219989946 2.963982863015765
-1.9410372784305647 0.7937937999983434 0.9065524950811086 -1.9062238520515078 0.6556144318280518 0.0014817574139552238 -0.28330014085635125 1.2180831153465213
2.9074071370196464 0.021957235114298514 0.06618458640042395 -1.171868921338665 -0.5658719596220513 1.0489609380672735 0.6793935190555419 -0.031368513494408196
0.25143460718692073 3.826013721666718 -0.18408420264769562 0.04035227870617445 0.023349495768149525 -0.5588877741432601 -1.1266305991322565 0.793101174963522
3.8317791790794833 1.2760220624615934 -0.15375633904973363 -1.3168852523341141 -0.479537212168631 -0.2456183006818322 0.11216254446731819 3.2331984231052613
3.014412462118911 0.7246986592570803 4.859011231746943 1.8783404423727317 -0.6148880951251735 -4.262825628114897 -1.616991193474705 -4.475681539091667
1.9342572439151884 3.7722170641964716 0.5885026684660513 2.02351871502037 -0.0993636275611705 4.896531455609108 4.481097552286834 -2.9166313791600524
-0.7938750344336991 -1.1157554444361997 -0.6081091316725332 -1.1774785875848484 3.761973144496595 0.5894804833338387 0.8790440889809634 -1.082393221151181
-0.1354984881507181 2.024137823158466 -1.7756873294715652 0.957469356692562 -0.7220740135817539 -1.5360366739983453 -1.9467892535154865 2.829889319207642
1.3304528659065815 3.278502459553291 2.814467118892149 3.004766022530618 -0.9379266576998088 0.7829024317262333 -0.4639268969655206 -0.8665049564271374
0.5074604945394908 0.6215752658328663 3.6205898941877974 0.2419179946927927 -1.447603283001889 1.7577027306470467 2.6966305642204476 1.6396557707748516
1.7410996565598469 0.6789363567634883 3.0281114031900653 1.9279605702011793 0.07474103873702023 -1.3793349089186726 -1.2818813481421534 3.7485558635223764
1.0209466609992557 0.7551377375994758 -1.4038701865521088 -2.9094207766093456 0.47982470373778013 0.5934494585840503 0.059451016824888195 -0.5423475966722366
1.2201293812521292 0.4091712486292843 0.15788343190285545 -0.43803628485201823 1.6788003127138202 -0.30736591859854867 -0.40097043563608675 -1.4367576018423889
-3.26351257653128 0.6573110844808134 -1.1486986976571052 -1.14072867330349 2.261708533901868 2.2206101916687953 0.6840439718167433 0.8542503634489398
-2.0351991345794085 -1.13372281153418 0.4741516389740626 0.0934578790171131 6.305605295593271 -0.3516639380636575 -0.21580911915266196 1.368918890942756
-0.4193215101967492 0.5395259434960904 -0.48752756937440406 0.3293735658398755 2.7508083029779353 2.381947030034967 0.8772488405319373 0.5647403572490627
9.090970435503287 0.5474691668226929 1.4818733755230158 1.1950388255782822 1.9591582748553784 3.3090650760062825 0.7385187969958541 2.877184678415759
1.6789229308457363 -0.9036121177304294 0.9543110300382348 0.857869577122306 4.058127961502507 1.616049371972883 0.7489790227207803 1.9179875066780763
0.32405705441407534 -0.3582421826764878 0.3622352666266413 0.16971801544621357 0.08118796478893288 0.25710265198533333 0.256781788204525 -2.4206634724278726
-1.1686689388103872 0.970999493815304 1.3763720872667156 -0.9294880104030536 -1.1371843445511263 0.41653359133130385 -1.30588937395006 -1.1597067254890672
-0.39687717467197864 -0.1089408863114234 -2.1011638349920947 -0.21115156339180363 -1.883029392518061 -2.3846118616810053 1.9849225772001549 -1.628726809110702
00000000: 2732 a137 ca32 eb3f a0af a47d c284 f7bf
00000010: 80b3 e9a7 d9e6 cabf 8699 401b d113 d73f
00000020: 93d4 0000 96d8 e3bf 68b0 5c81 ee37 f4bf
00000030: f7bd e6a4 9031 d4bf 38ee e936 3c19 fa3f
00000040: d034 91c1 d3ea f13f 43fa 0dc2 56c0 00c0
00000050: c9b7 e66e 8241 c7bf bf83 f1b8 6934 e0bf
00000060: 729d 6262 8a08 f23f 5aff 3352 c40b 963f
00000070: 17d1 0242 e985 da3f ab19 c96a 3176 f03f
00000080: b184 04f7 60a1 de3f 6d3f c733 c642 cbbf
00000090: a5ab 8441 f129 f33f a4fb 318e ad54 b63f
000000a0: dd78 a99a 2f54 f03f af91 a16b d099 d13f
000000b0: 097b 15ca 4df6 0c40 874c f836 b666 d23f
000000c0: 049e 4430 c0fa b43f 54b2 5c02 9336 0340
000000d0: 2a4d b49a fdf7 1040 5285 0f56 dd9f 0740
000000e0: 782a 7b86 2b23 0140 bdc4 ce8c c7de fc3f
000000f0: d391 64d9 33d8 f0bf 9e30 0fe6 f4c6 dfbf
00000100: add2 59b4 5b32 e53f 9010 12b1 98e5 9f3f
00000110: 094c 2b2b 95b3 f83f 4c32 25c1 1654 cfbf
00000120: 20bb 9610 de5f 02c0 d4a8 d9d0 c3c9 d33f
00000130: 9970 147e 8876 f03f a8b3 2d93 e6ea 1040
00000140: 6960 e4f7 6cba 0a40 8e03 a3c5 aceb d03f
00000150: 418f 52a8 a122 f13f 30d8 624d 1b6a cb3f
00000160: 006d 784c 8abb f0bf 7be3 27c5 b444 ec3f
00000170: 5e09 8faf d1c7 f33f f751 1649 b939 0c40
00000180: d521 9f22 588d f43f 44a0 8010 422a f03f
00000190: a8aa 349c 22b8 fb3f 4b1e 795d a049 1140
000001a0: 22ab 8134 949c d9bf 1866 a6f1 e5cf cbbf
000001b0: 2b85 a2ed a862 e4bf bf9b a446 961c b53f
000001c0: d128 9cdd 201a f63f 9414 d3ca c82c d8bf
000001d0: 1db1 154a 72f3 0040 6414 db33 c5d3 04c0
000001e0: 8b1b 4e95 5a12 edbf 76da 5c97 e221 fb3f
000001f0: f066 b318 a84d e63f 52c9 8395 fa3a c1bf
00000200: 67fd 80e7 19a5 a4bf 5230 cb74 7e19 a2bf
00000210: 8ac2 42b9 cc54 1140 124e 3544 13f5 f73f
00000220: b4f9 a514 8fc8 d03f 1b6a f28c 1c1d babf
00000230: 7669 9b01 610a e4bf 0c80 a6e5 68b8 f3bf
00000240: 79a3 514f 10fd edbf 10d9 08e3 5f9c d0bf
00000250: 7ec2 53f8 4df3 f3bf 520d af8d 73f5 c43f
00000260: 8003 d2cd eece 81bf ed9d 56c8 9ded e7bf
00000270: 150b d895 b6b0 0540 282b b3d1 775f 12c0
00000280: 776b ecd1 7e2f 02c0 777b 5803 ccef dc3f
00000290: 1886 5442 86b4 ebbf e9e0 77e4 78d1 b63f
000002a0: a2eb c915 f57d f0bf 292e 40c6 c4d1 e73f
000002b0: f4b3 7044 00e8 d9bf 1075 b4a5 3cb6 0740
000002c0: 65d1 f21a 7d0e ffbf 9b55 5841 c266 e93f
000002d0: c460 cf60 7a02 ed3f 72a9 f694 e47f febf
000002e0: 5b96 ef1d cbfa e43f ddf8 8be8 f046 583f
000002f0: c288 fbe9 9621 d2bf d691 83b8 447d f33f
00000300: 4040 4dac 5e42 0740 4aee e71a f57b 963f
00000310: bbcf 161a 79f1 b03f e592 45a0 f9bf f2bf
00000320: c59a 0983 9f1b e2bf 9b7c bc43 8bc8 f03f
00000330: 29a7 2e7a 97bd e53f e44c 2aa7 880f a0bf
00000340: ddd3 bc2d 8117 d03f aed8 0415 ad9b 0e40
00000350: e781 0a37 1290 c7bf b564 b9ca 0da9 a43f
00000360: cb25 cf22 eee8 973f 908b 029d 68e2 e1bf
00000370: 8522 9fce ad06 f2bf 6866 1cb7 1561 e93f
00000380: f11e 9dd7 7ba7 0e40 c4f3 331c 966a f43f
00000390: c0b9 e2a7 49ae c3bf 72c1 3545 f611 f5bf
000003a0: 94ac ded8 bcb0 debf d020 5da4 6b70 cfbf
000003b0: 4ec2 523c afb6 bc3f 19ba 8522 97dd 0940
000003c0: fda4 eb47 841d 0840 cada 1e3e bb30 e73f
000003d0: cbff eca3 a06f 1340 bfeb 2bb5 ae0d fe3f
000003e0: 3b65 68cc 29ad e3bf 7137 5529 220d 11c0
000003f0: 474d 5e28 32df f9bf b0d6 b60f 19e7 11c0
00000400: 55ab 4ab9 b7f2 fe3f 8818 e123 802d 0e40
00000410: 1674 558c 03d5 e23f fad9 7e94 2a30 0040
00000420: c382 c90a e56f b9bf a1b4 8657 0c96 1340
00000430: c907 35d6 a4ec 1140 a2d6 1fd5 4255 07c0
00000440: 961d c09d 6c67 e9bf afff 8261 22da f1bf
00000450: f1d6 1d48 a175 e3bf d5ac 96c9 f3d6 f2bf
00000460: 6358 4060 8518 0e40 5092 b12c 06dd e23f
00000470: 904a bd11 2121 ec3f 4a1a e48d 7b51 f1bf
00000480: 3de4 a1b3 0358 c1bf 797f c82b 6f31 0040
00000490: fc07 001e 3769 fcbf b555 bdc6 96a3 ee3f
000004a0: c300 34f6 3a1b e7bf dc78 0431 9b93 f8bf
000004b0: 2fda 007d 0c26 ffbf 4a5f ea02 9da3 0640
000004c0: 0903 bff1 8849 f53f 7818 5d7f 5f3a 0a40
000004d0: 1679 3a56 0784 0640 4135 b7c4 c209 0840
000004e0: a3c0 1bc4 7e03 eebf 2f23 8766 890d e93f
000004f0: 34e8 8c70 fab0 ddbf 90a5 359a 68ba ebbf
00000500: 25e4 81ca 1d3d e03f 3b26 d8cf f1e3 e33f
00000510: 161e 9ed5 f7f6 0c40 377d c239 2bf7 ce3f
00000520: 9e34 610f 6229 f7bf df80 03e6 8c1f fc3f
00000530: 4dc4 950b b392 0540 81cf 82b0 073c fa3f
00000540: a105 4050 8bdb fb3f 90aa 0bbd d8b9 e53f
00000550: 9cc4 aa78 9239 0840 80dd cf2e edd8 fe3f
00000560: 0269 0b8d 3a22 b33f e396 407b c111 f6bf
00000570: 8ff7 3904 9682 f4bf 0f76 48db 0afd 0d40
00000580: 383c 7f2a cc55 f03f bde2 de9d 162a e83f
00000590: b221 b195 4076 f6bf 72b8 6e66 7e46 07c0
000005a0: 4577 97ac 72b5 de3f 1f51 0eb8 89fd e23f
000005b0: 7224 f419 5d70 ae3f c2af d858 e95a e1bf
000005c0: a3dd d562 a685 f33f 75e1 d49a dc2f da3f
000005d0: 572f 4d38 8635 c43f 07a6 7957 c908 dcbf
000005e0: 49ed 79b7 5ddc fa3f f849 121a e2ab d3bf
000005f0: 4712 eee6 7fa9 d9bf 4614 038a f5fc f6bf
00000600: d84a 527b ac1b 0ac0 a096 6441 b108 e53f
00000610: 2952 b6e2 1161 f2bf d62a 97b5 6c40 f2bf
00000620: 828a d1a4 fa17 0240 dc0d b346 cfc3 0140
00000630: ce52 ff2e b0e3 e53f 787f b3db 0456 eb3f
00000640: b2ed de7b 1648 00c0 ac4b e487 ba23 f2bf
00000650: e941 af1d 8058 de3f 3799 ee05 dbec b73f
00000660: e43a 3898 f038 1940 649f 4a76 a981 d6bf
00000670: 5b39 781a a29f cbbf 959c b77e 17e7 f53f
00000680: c57a 33e3 29d6 dabf 9818 55e9 cb43 e13f
00000690: c721 97d5 a633 dfbf 2bbf 5cdd 7414 d53f
000006a0: 0cd8 96c8 a701 0640 a56f 963e 3a0e 0340
000006b0: 213c 1129 6c12 ec3f efb6 a35e 5a12 e23f
000006c0: 6cc7 4aad 932e 2240 774c e20e de84 e13f
000006d0: a1f3 4adb c0b5 f73f 8bf1 1408 e11e f33f
000006e0: ea10 e358 b658 ff3f 0c43 4e1c f778 0a40
000006f0: b782 122c f2a1 e73f a0c8 9266 7904 0740
00000700: 5fca 874a dedc fa3f e57c bdf5 63ea ecbf
00000710: c93d 0749 b789 ee3f 2d28 3fe6 aa73 eb3f
00000720: b08b 76e5 853b 1040 9884 1596 56db f93f
00000730: b139 ffda a2f7 e73f 4b1a f5aa 13b0 fe3f
00000740: 69c7 afcc 59bd d43f be29 a99e 70ed d6bf
00000750: 08a2 e7d3 dc2e d73f dc16 f1e6 51b9 c53f
00000760: 71e6 9805 bcc8 b43f e67a 7fae 5e74 d03f
00000770: 52ff a2e1 1c6f d03f 9998 85cf 845d 03c0
00000780: 8daa 8033 deb2 f2bf 2fd1 cb87 6d12 ef3f
00000790: 3c01 dfbc 9e05 f63f 3091 d6a3 5dbe edbf
000007a0: aeec 1536 e831 f2bf 2a04 1d82 7ca8 da3f
000007b0: 65f3 9441 ece4 f4bf 25d4 aea3 288e f2bf
000007c0: 89ae 6f85 6f66 d9bf 20a2 e7c7 8ce3 bbbf
000007d0: c4a1 16fc 2ecf 00c0 442f a2b1 0307 cbbf
000007e0: 5f59 a46d e320 febf b896 3c62 af13 03c0
000007f0: ceaa 222d 3ec2 ff3f 7efb b3d7 430f fabf
