Results/user_bias.npy (npy, 4912 bytes, 1 tensors)

array f8 [598]
8.434600757558789 0.6663957749832751 -4.959839757138203 -1.854135452809355 0.1501525015557898 -0.5484677446892503 -5.017907184160074 -0.7384099502216231
-1.8322699437071548 -1.3654837509875604 1.045460860014458 3.010351739600959 0.7019108502069312 -0.5978430843066816 -0.9604200489329933 0.07630080524672235
2.534210525724361 -0.4931668118366798 -10.293194703973468 -0.9737045525527952 -4.236368654483526 -5.950737554713286 0.11871819450664091 -0.49973737891704173
3.147659891846989 -0.9535343418676887 -7.146267875192172 1.6076992929511742 3.3089913752854474 1.9561923339676734 1.061782976101283 -0.17359111302197155
-0.41850157642513847 1.2253103606795148 -5.595071435243339 1.8761155982670372 -3.289379682915657 1.0574661205356841 2.319953027576017 -1.7589129589268975
0.010805110185973412 9.303573171796128 -0.7567190283697672 1.6358815624939986 2.2716503281651073 -3.3766751514596898 2.1583940230330865 1.3168054498671564
-9.547978554958716 0.5713021057379217 5.11505862151003 3.6735099858178364 -1.9994801168862446 -2.910349204227896 2.0577651182289496 -6.118728148698728
2.081931331517444 5.477637764176677 0.4213799056337455 1.5200343061091486 4.149299905933505 -2.1956420067487166 0.6253232589418792 1.0400858082190458
3.051298994412163 1.294705181871635 -3.3322134869866673 3.2694744363885437 2.541437392100016 -0.14674112692379443 1.7052134369744392 -0.28307345216174024
4.798684322813816 -2.4917485358670244 -5.0303597417154124 0.5763661101463301 -2.3844186550161055 3.004078369400364 6.068373016507662 -1.581746145071397
-3.0915880556159627 -0.3047935045807988 0.6456094477022879 1.9251270951811552 0.8643730665582746 1.6880035082588387 4.321327202658974 2.9551684485977265
-3.4225652076119326 1.7064438843411305 5.94089545904734 -3.0556733171944472 3.2729653807836505 0.12852636767157072 2.1319535275957846 1.4826629716520316
2.057887865021195 3.3982571248035236 0.17024982227624144 -1.6790206326128874 1.7808490837187156 -1.1725745940405916 6.156983417964263 3.1226931005734304
1.6144382519807556 2.4231234666186894 -2.9923045746991925 -0.29288979386899044 -1.2873835849350401 -0.38278319170400854 -1.2886091501746906 -0.6081694493441505
1.1033622136663883 -0.7412958491712148 -2.2955345870717903 0.11976979739684508 5.634596863771257 -0.908034338791429 -1.5800035084093635 8.110412569694777
1.6537705739189703 1.569943143171669 2.5244430122055315 -0.9061798772187086 -1.3697325459173373 1.9399958853488375 3.371219829424419 -0.1843402915972744
-0.8834571767567724 -7.249058538194429 -2.281672621906369 0.05423223566399597 -2.0487431154786897 -1.3541542151858248 1.799698831530682 -0.2815693266814629
-14.55716335471552 -2.459816852359525 -0.9638683279661073 0.58671685356948 -0.9651355589730038 0.31337626156532417 -0.3780518895613267 -2.104766216630756
-0.36961224457040065 1.0647733699240423 -5.582699024385464 0.09194905110779183 0.4345462902042173 1.2992878269690433 -11.512294919272266 2.2628637210912315
0.959020180967395 -1.046737353106224 -0.18817084514547158 0.36342677105223786 -1.488023681162254 -9.94038362994683 0.4211127115316627 3.5534309169156524
-1.723778121654131 2.3036738582937692 -0.2678602429036242 2.8649962195925682 -2.5452161387219485 3.673628591531862 7.801060475748485 -1.5735372844868005
6.130544209402898 0.5290964470590156 -0.25254143100108944 0.8364837567117965 0.7050867553240798 1.7703809795684196 -5.405321424218974 1.2669051104879172
1.0199040600465354 -0.10257058259600409 -4.440331489954061 -2.4028111108109473 0.7498773883725711 -0.6529083991906908 -0.9316620441819186 6.267061840789284
1.127210585413397 4.502220575424669 0.6355581446702622 1.3705589544858543 0.5298692001759381 1.5017064318855269 -0.16197339379448203 -0.21181572576118887
-1.152031235257736 0.6595468475732107 1.7497400925752478 -3.2869438975073897 -6.151702719023232 1.6723943572701099 4.002580827688307 0.3360881654887314
0.782755327189889 0.6596096965909599 0.9239769598437468 1.6513317860575596 -1.6330384869227916 -1.0929434749794267 1.3007275037073467 4.921616938204572
0.7153000552853731 0.02525794308125027 2.4271151208388027 -1.9241356758729622 0.8094745050968021 -0.2998027025679549 -8.123627647528386 -0.8172113910395394
-7.798585776437832 1.1500940746577553 4.014748485618014 -5.534531782134716 -2.835474478681445 2.443255248412559 0.44221927293659985 -2.288579605449614
2.8583739166745894 0.5628288692040677 1.2268409895407746 -4.818067687919387 0.6035859529267705 -5.0158361651206205 -3.8432414751320723 -1.137655403769427
-0.47865770808111213 -1.5059219772590962 0.9657584405923337 2.4555701445636475 3.334663826614945 2.024246722141943 0.23411381699536082 2.766792097069148
-0.3460718322749307 -2.479428215925807 5.629183397779125 -0.3442924903712192 0.9616820864070066 0.8516036850978411 1.9325928532016472 2.132804364375672
2.463174627891499 3.670509609401902 1.053277510668191 -4.241147515319765 4.4613811913931345 -0.5959190522229226 1.035854114664869 -1.9011951896785966
00000000: 4b10 91fd 83de 2040 1ddd 773b 1d53 e53f
00000010: 963c b93b e0d6 13c0 adb9 c2ef 89aa fdbf
00000020: 561f cc79 3238 c33f 183d 4b3a 0c8d e1bf
00000030: e952 c942 5612 14c0 81c5 67e7 0da1 e7bf
00000040: e6a7 da49 fa50 fdbf 2c60 5b7d 05d9 f5bf
00000050: 7f29 b02a 35ba f03f b657 f84a 3315 0840
00000060: 1715 4bbe 0d76 e63f 3f95 e7d1 8721 e3bf
00000070: ace0 92d3 c2bb eebf 7971 3117 7388 b33f
00000080: 1e52 092b 1046 0440 7be9 1388 0b90 dfbf
00000090: 57da c19d 1d96 24c0 38c7 2573 9628 efbf
000000a0: 9e39 e39f 0af2 10c0 514a 4225 8ecd 17c0
000000b0: e19f d8ca 5064 be3f a665 c27c b2fb dfbf
000000c0: 4a4f 334f 682e 0940 4ce8 bd73 5a83 eebf
000000d0: 879f f13e c795 1cc0 1e71 d0e4 22b9 f93f
000000e0: c7c6 5c78 d078 0a40 ab3b 3155 904c ff3f
000000f0: 7adf 5c25 10fd f03f 261e a7cc 3b38 c6bf
00000100: ab81 04d6 bac8 dabf 7f18 6909 df9a f33f
00000110: 9e9d 0468 5a61 16c0 8c28 21ca 9104 fe3f
00000120: 2dff 914b a650 0ac0 9742 4598 61eb f03f
00000130: ba8f 6d88 438f 0240 38a0 31ea 8124 fcbf
00000140: 8107 0757 fd20 863f 5e9d 59f1 6d9b 2240
00000150: 4f7d e3d2 0a37 e8bf 5da8 3025 922c fa3f
00000160: 9d55 db01 572c 0240 b8e1 0543 6e03 0bc0
00000170: c978 e615 6444 0140 ecfb 6597 a211 f53f
00000180: ffe9 28a5 9018 23c0 48f8 885a 1b48 e23f
00000190: a008 62ed d175 1440 aeef 1434 5963 0d40
000001a0: 7775 f0dc defd ffbf 9ac9 e029 6548 07c0
000001b0: af24 ed8e 4d76 0040 471a 2fdf 9379 18c0
000001c0: cd14 2b9d cba7 0040 c0e4 c1df 19e9 1540
000001d0: 3cdd 786c e3f7 da3f ec96 187e 0f52 f83f
000001e0: 021f 1513 e298 1040 28ad a5c1 ac90 01c0
000001f0: 1fac 52ec a502 e43f 3c5a 3504 31a4 f03f
00000200: 1d8b 7a72 0f69 0840 429b e1c7 1cb7 f43f
00000210: d02e 6f8b 5fa8 0ac0 b42c 9b36 e227 0a40
00000220: 7335 9f20 dd54 0440 3ad5 8eca 69c8 c2bf
00000230: 5f14 88e2 8d48 fb3f b5a1 d91c e01d d2bf
00000240: c440 994d da31 1340 ef3c 3bdb 19ef 03c0
00000250: 7d21 c79f 161f 14c0 353d 3357 9771 e23f
00000260: c021 7a16 4a13 03c0 8790 793d 5a08 0840
00000270: 2e51 7793 0346 1840 d67d ba0b d54e f9bf
00000280: 2b99 bc84 92bb 08c0 e44b 8d9d bc81 d3bf
00000290: 9fd6 fb24 d5a8 e43f 0825 a711 52cd fe3f
000002a0: 1527 8db4 f1a8 eb3f 6414 78f7 0f02 fb3f
000002b0: 1cf1 8aff 0949 1140 b42f 075b 2fa4 0740
000002c0: 32f7 18de 6961 0bc0 1145 3b1a 984d fb3f
000002d0: c040 6619 7ac3 1740 40e1 24da 0472 08c0
000002e0: 6b3f 3b79 082f 0a40 4a5a e950 8d73 c03f
000002f0: 03ed aca6 3d0e 0140 3ac5 e3ce fcb8 f73f
00000300: 74cf b8e9 8d76 0040 e570 736e a12f 0b40
00000310: 31c3 6905 bfca c53f f61a 26bd 44dd fabf
00000320: 69ef da9b 5b7e fc3f a765 d893 ddc2 f2bf
00000330: e8ae d842 c0a0 1840 0443 3385 46fb 0840
00000340: 36b3 5a34 bdd4 f93f 1d61 5a8e 8e62 0340
00000350: a508 8061 3df0 07c0 bbf7 7fd5 b4be d2bf
00000360: 7440 ab87 1f99 f4bf 18f1 7412 857f d8bf
00000370: f439 d5a0 249e f4bf a880 ebc6 1f76 e3bf
00000380: c86d f522 5fa7 f13f b53a 9b12 b2b8 e7bf
00000390: 4c7b d23c 415d 02c0 f534 dec2 3ba9 be3f
000003a0: b82a a0c2 d389 1640 2d22 9807 9e0e edbf
000003b0: 86ef 42c2 b147 f9bf 12d0 0fff 8738 2040
000003c0: 261b 2122 d875 fa3f 3a07 88b3 7c1e f93f
000003d0: d24e 902d 0f32 0440 2453 1ef1 6cff ecbf
000003e0: 61b5 8fac 6cea f5bf 482a 1f20 390a ff3f
000003f0: 6009 181a 42f8 0a40 2d69 df71 7698 c7bf
00000400: 4dc7 32fc 4745 ecbf ac56 9133 09ff 1cc0
00000410: a521 5a93 dd40 02c0 26b4 21dd 53c4 ab3f
00000420: c816 376e d363 00c0 2b6b 3f9c 9daa f5bf
00000430: d92d 8100 91cb fc3f f7d4 695a 3b05 d2bf
00000440: cc10 e683 441d 2dc0 4445 3875 b4ad 03c0
00000450: e077 4864 02d8 eebf 58f9 426c 62c6 e23f
00000460: 07dd bff7 63e2 eebf 0403 b14e 5b0e d43f
00000470: 7bd7 768d 0032 d8bf ed3c 91ab 8fd6 00c0
00000480: b462 a81d baa7 d7bf 889b 17cd 4f09 f13f
00000490: 3296 940d af54 16c0 a0fc 6717 f989 b73f
000004a0: 829d 413e 9bcf db3f 65c4 4e08 e2c9 f43f
000004b0: d95c 0885 4b06 27c0 3622 6b4b 581a 0240
000004c0: d4af 2e17 4bb0 ee3f 427c b1aa 6fbf f0bf
000004d0: 09f1 fa74 fb15 c8bf 6441 0a5c 6242 d73f
000004e0: 213f 64eb f1ce f7bf 7ca1 90f6 79e1 23c0
000004f0: fd55 fdba 82f3 da3f f2fb 4530 6d6d 0c40
00000500: 6e09 215e 9894 fbbf ce2c 508f ec6d 0240
00000510: 12dc ca49 9f24 d1bf 7d82 5223 83eb 0640
00000520: 527f 6847 9a5c 04c0 373d 1263 9763 0d40
00000530: efd4 8532 4934 1f40 f184 7e6e 352d f9bf
00000540: 3f45 9861 ad85 1840 688b 11ac 5bee e03f
00000550: d938 c288 a329 d0bf dfcb 5695 79c4 ea3f
00000560: acb5 5e19 1290 e63f 144f 8b01 7b53 fc3f
00000570: f78d 5594 0c9f 15c0 d9e4 0a4b 3e45 f43f
00000580: e151 6feb 8651 f03f ab10 c8d1 1042 babf
00000590: af01 1342 e6c2 11c0 0730 1b08 f538 03c0
000005a0: 203e 62dd fefe e73f ecd8 b927 a0e4 e4bf
000005b0: 76f2 55eb 2cd0 edbf 53cc c0a8 7811 1940
000005c0: 8de3 80f7 0d09 f23f 1c4f 4b1c 4602 1240
000005d0: 3916 c208 7e56 e43f 6e1b ec39 cfed f53f
000005e0: 033a bd40 b0f4 e03f 5042 d252 fd06 f83f
000005f0: dfaf 954e 8bbb c4bf ab1e 7617 c71c cbbf
00000600: 7870 f64d b86e f2bf 0238 90fd 011b e53f
00000610: 6fc5 a177 effe fb3f eba5 fc3d a94b 0ac0
00000620: 1ead 23f5 579b 18c0 4bd7 e795 20c2 fa3f
00000630: 5212 6a8c a402 1040 f130 d6ef 7782 d53f
00000640: 7e9c 61e6 540c e93f ea71 5fcb 851b e53f
00000650: 2c2a 1921 3891 ed3f 5966 ffe0 da6b fa3f
00000660: 5b15 e7f6 ec20 fabf 999c 164c b27c f1bf
00000670: 72e4 96a4 c7cf f43f f81c c459 bcaf 1340
00000680: abe2 08f1 bce3 e63f fa27 fedd 37dd 993f
00000690: b809 1d55 bb6a 0340 460f 8f7d 42c9 febf
000006a0: 05c5 ca13 37e7 e93f b508 b2ac f72f d3bf
000006b0: 1b08 7e1f 4c3f 20c0 25df cd80 9826 eabf
000006c0: b067 4378 c031 1fc0 b2a7 5f0b c966 f23f
000006d0: 6094 1d3a 1a0f 1040 cbc3 ab4c 5c23 16c0
000006e0: baa2 543e 0daf 06c0 c9b2 5d68 c98b 0340
000006f0: 2b1c bb10 524d dc3f e396 fdd2 024f 02c0
00000700: b5da de24 f3dd 0640 7a3c 4fb0 b102 e23f
00000710: bb84 7704 24a1 f33f c71c 3689 b345 13c0
00000720: bba7 047d 9350 e33f 0326 0d5b 3710 14c0
00000730: 9a95 f262 f5be 0ec0 f7ea 1427 d633 f2bf
00000740: c1f2 8bf0 53a2 debf d27c aaa4 4118 f8bf
00000750: d3c2 c53e 7ee7 ee3f 977a bff5 01a5 0340
00000760: 25b9 733a 64ad 0a40 2914 f543 a831 0040
00000770: fcb5 c409 71f7 cd3f 2cf2 1de5 6322 0640
00000780: 0b02 6c78 0a26 d6bf 9f72 e175 ded5 03c0
00000790: 0a97 12a7 4884 1640 2bc7 995e e308 d6bf
000007a0: 688c c882 19c6 ee3f f5be 145f 5640 eb3f
000007b0: 1ec0 cf7b e6eb fe3f 9e13 0ebc fb0f 0140
000007c0: 340c 39e6 94b4 0340 7b47 6024 345d 0d40
000007d0: 2dea de84 39da f03f 7e3d cf5f eff6 10c0
000007e0: 9517 a04f 74d8 1140 6b8b 0bd5 c411 e3bf
000007f0: 339a 9ec3 db92 f03f a3b6 afa5 4b6b febf
