Results/user_bias.npy (npy, 4912 bytes, 1 tensors)

array f8 [598]
10.955715313808572 0.7301937229250355 -4.931326433668948 -1.8329775107151318 0.044575910159328574 -1.010675171576223 -5.447732613524669 -0.6947161940352401
-1.7415425256463368 -1.5986083078714444 1.2847763673018928 2.8682406237420643 0.7128903021839756 -0.6414378967438159 -1.1815769969053906 0.08416884232405579
2.8424876037899995 -0.26446945257132004 -17.86454902314974 -1.3857928589501731 -4.183462148237564 -6.0425969539911515 0.21066507114634395 -0.38492198355795715
2.778372369185314 -0.9118353165272588 -10.525319331259182 1.9838426156149145 3.0592322588635006 1.869069300240228 1.1699122155277728 0.21133532553380766
-0.5370838337642654 1.0768609238869236 -5.226004733957724 1.6587141115964152 -3.293200578570851 1.184630718825705 2.4125391317801945 -2.331795456225538
-0.6047446398195329 10.39554040398507 -0.7966147600963607 2.5526306440692994 2.1355614950944415 -3.71140008393693 2.0101699213613675 1.2047627159349836
-12.913564475293336 1.1844340429744944 5.910579171126297 3.299064467008872 -1.8446805514080027 -2.641637716148663 1.989673940202752 -8.466809389476193
2.3402223123585615 5.200930150914257 0.44878715825813614 1.4417185235749652 5.820778005767338 -2.5610461035742085 1.0571012865961924 1.0892464100404244
4.551830435715946 1.3034899464163126 -6.469497646653543 3.272096946714567 2.684450138661023 -0.18081118123191542 1.7676000305933073 0.19457534125530698
6.213474948297832 -2.579660344097764 -6.09088639727576 0.2977275098457127 -2.273012041282494 3.0514429072534424 6.789925479844738 -2.3010714572572857
-2.8077990398540424 0.757280454328112 0.61516993732095 1.9901277609618144 0.7977361223088256 1.5825857662691798 3.9190086000216526 3.022208086686368
-5.753092206764931 1.4740519012269016 6.152579553757127 -2.962026533097958 3.9098240714336363 0.30134347162235253 1.8163870397852313 1.530638076706959
1.7919016078890315 3.831716375609437 0.11742276991151934 -1.4791416513439943 2.688091434064085 -0.9527278717398818 9.824020920056137 2.944298810085494
1.5508547442729754 2.579101778930733 -3.4321767203913858 -0.11988712893257907 -3.2216030490476544 -0.302815502558569 -0.7026232313499292 -0.6745914848974891
1.7119223753721586 -0.8221295313321814 -2.8315642872746234 0.10577092687253611 6.601573808945797 -0.8724912513435332 -1.73267357804597 10.199653798975755
1.5604408990602674 1.4555093261929863 3.683023318733351 -0.8956667616374155 -1.2636892343179473 1.8591505956167735 3.94655339446108 -0.1662757672585184
-0.449622797102168 -9.799827786685167 -2.1277810812251237 0.01012813355419041 -2.5303381882182325 -0.8022355545157936 2.487260491826009 -0.24221400010488137
-18.045761203600776 -2.5004417318939973 -1.0240679330810762 0.5601902402433221 -0.8402718127785245 0.4036732637011697 -0.31159511810748824 -1.8957011261916816
-0.3888297908440399 0.8664162547072801 -5.187383749225433 0.0523769067123544 0.37239712126181435 1.4658107813739756 -14.43605273592524 2.112342267955396
0.9123390033731906 -0.2124568592531528 -0.23809929425359344 0.2699579744975955 -1.6292741007413123 -16.727773110328087 0.5896595956468937 3.186738612047392
-1.5472591329234846 2.1010563520328285 -0.3246666822827914 3.4563696188369133 -2.8855694334580746 4.13416867135285 10.070075166428431 -1.4252182430333817
6.341333281410147 0.5077245716171614 -0.30882408398045436 1.0315939422127864 0.6828591646143832 1.6811213307245647 -6.429232604889246 1.511361725962495
1.167329650774732 -0.06925876361809355 -4.805601215792653 -4.969251059503295 0.8597474951221701 -0.3691564941891389 -0.9030149687644385 7.326436622651371
2.24045767736597 4.08368340398312 0.5535391233816529 1.3347854595067945 0.8397379299578203 1.3471853507022544 -0.20363987330741357 -0.2067060516830523
-1.2901745609565167 0.5688557065892728 1.597816501308673 -3.533717723827509 -6.272071121876027 3.1272867773929667 4.354646614131172 1.4042479215149262
0.7994421080600821 0.6705527803949354 0.8131374801284178 1.4699034529075898 -1.3926591867532856 -0.9071005396161431 1.2811698958742939 5.948825494374852
0.7645428251447197 0.48766667797974383 2.3152630833877073 -1.7634726497732514 0.9761395647067884 -0.40104362815651307 -13.46652949232947 -0.647692811748746
-12.397345099292398 2.771130296318571 6.008331654833733 -6.811752432683668 -3.033535178284848 2.1618102837370388 0.6595482226660628 -4.2537644663567455
2.7858540237468357 0.4273148850916401 1.2250031955772442 -5.49032736723338 0.4057901994569202 -7.197334924440198 -3.79892044448677 -1.6001366520341531
-0.34962730353050403 -1.5126582910267 0.7776143026578477 3.119522005303676 3.9594524678139678 2.3128003055615163 0.13062865882226188 2.5371514440410365
0.06394577775974757 -2.1903794562170753 6.918793377674579 0.08814159563579434 1.0228626347817933 0.5990316559282938 1.7964355574975257 1.9851436294709845
2.591218864412806 3.5177789047702532 1.0087885035615556 -4.283485373649742 5.061601891327411 -0.5914833404737917 1.0556887619887674 -1.62063263584324
00000000: 3a30 8284 53e9 2540 f2a3 f639 bf5d e73f
00000010: a608 faa2 adb9 13c0 1f33 ed39 e053 fdbf
00000020: 9cc2 a558 a7d2 a63f fac8 8cba b92b f0bf
00000030: a5c3 116b 7aca 15c0 1941 ac74 1d3b e6bf
00000040: 7be8 03b2 5bdd fbbf 80bf 164e e693 f9bf
00000050: d8c3 03aa 718e f43f 183f e023 28f2 0640
00000060: e280 b052 ffcf e63f 38c0 9dc4 a886 e4bf
00000070: fba1 f647 bde7 f2bf 7bbe 1fd9 168c b53f
00000080: f481 0c24 6abd 0640 106e 6548 11ed d0bf
00000090: 8537 b415 53dd 31c0 968a 0322 352c f6bf
000000a0: ddef 5a80 ddbb 10c0 7134 3189 9e2b 18c0
000000b0: edd4 7db3 12f7 ca3f e024 b9d0 8fa2 d8bf
000000c0: 7316 ee4a 1b3a 0640 fa50 fa41 c12d edbf
000000d0: f76d c7a7 f60c 25c0 6fa2 27c1 d1bd ff3f
000000e0: db7e 35c3 4e79 0840 85d4 e735 b5e7 fd3f
000000f0: 7d1f 0edf f5b7 f23f b51f d433 090d cb3f
00000100: 4e4a a76f ca2f e1bf 75f4 2685 d23a f13f
00000110: c15b f4c8 6de7 14c0 5786 ebce 178a fa3f
00000120: 690a 818b 7958 0ac0 1018 3357 3ff4 f23f
00000130: 8487 fa50 e14c 0340 c699 4b60 84a7 02c0
00000140: 2299 4e6e 115a e3bf 9ab9 9645 84ca 2440
00000150: fefd c33c de7d e9bf 475c 789d c96b 0440
00000160: 4d38 e043 a115 0140 d10b f786 f2b0 0dc0
00000170: 2133 bdf7 d314 0040 2318 0645 b546 f33f
00000180: 3558 10b9 bed3 29c0 1f83 6d1c 71f3 f23f
00000190: fc9f c1dd 6ea4 1740 1897 49e9 7b64 0a40
000001a0: 7ad5 fdc0 cf83 fdbf bbe8 75f4 1222 05c0
000001b0: 0cfd 6d57 b4d5 ff3f 2e88 eaa3 01ef 20c0
000001c0: 9d98 c779 c6b8 0240 0cd4 2ba2 c0cd 1440
000001d0: 9757 e5c5 edb8 dc3f 8bab 4c71 4711 f73f
000001e0: f12f 9007 7a48 1740 1532 53bd 057d 04c0
000001f0: bcd7 e709 e3e9 f03f 628b c6a4 8d6d f13f
00000200: 8459 a909 1335 1240 9d5d 2846 18db f43f
00000210: 27b4 b7fd c3e0 19c0 1bd8 fb29 412d 0a40
00000220: 8655 8afe c079 0540 cc33 121f d224 c7bf
00000230: e0e8 3cf8 1648 fc3f bd58 a643 d8e7 c83f
00000240: 63d1 452d 99da 1840 0881 65f6 24a3 04c0
00000250: 78cd df52 115d 18c0 e609 7aaf f70d d33f
00000260: b5c7 e5ef 202f 02c0 191e 22e6 5a69 0840
00000270: 4ed7 9839 e228 1b40 ce6e f526 9868 02c0
00000280: 774e cf57 5f76 06c0 0aa8 2738 a43b e83f
00000290: c4d3 48dd 78af e33f 4b15 0335 90d7 ff3f
000002a0: b7ef 84e7 0d87 e93f 11dc d373 4552 f93f
000002b0: 9aaf 4e2e 215a 0f40 8d32 f06e 7b2d 0840
000002c0: 1eb6 7b9a 2a03 17c0 c504 4672 b795 f73f
000002d0: 56b3 85d0 3d9c 1840 e751 8cf7 3ab2 07c0
000002e0: 485e bfd7 5147 0f40 7aca de20 3649 d33f
000002f0: d617 4cdb eb0f fd3f e97f 175a 7e7d f83f
00000300: 0388 3805 a1ab fc3f 4c52 46ea 5aa7 0e40
00000310: a061 932c 6b0f be3f 41c8 aa6f 90aa f7bf
00000320: 32b4 ef14 3681 0540 0389 6329 bf7c eebf
00000330: cdb8 ed11 e6a5 2340 55c0 d788 ec8d 0740
00000340: 62fb 7710 4dd0 f83f dc80 0c1d 00a2 0440
00000350: 6863 8111 1975 0bc0 1b0d fa41 ecb0 bebf
00000360: 17d4 c2d1 d7c5 09c0 b37e 0d46 5461 d3bf
00000370: 66d9 01b7 e37b e6bf f36e b9e1 4096 e5bf
00000380: 9439 78b7 0864 fb3f 89b8 4497 e24e eabf
00000390: afed 522d 0ba7 06c0 9aff c8af cd13 bb3f
000003a0: 9b35 eef6 0268 1a40 8421 d2c5 72eb ebbf
000003b0: a79c 05ee 07b9 fbbf fd3e d205 3966 2440
000003c0: fedf 4ce0 90f7 f83f 9759 b025 c449 f73f
000003d0: c8eb 02ee d476 0d40 071a 2b57 4da9 ecbf
000003e0: ef3e db33 1238 f4bf 1935 e8b1 14bf fd3f
000003f0: 6706 0996 8a92 0f40 f60e 3f3b 8648 c5bf
00000400: 30c0 45b2 9ec6 dcbf 5e7d 1407 8399 23c0
00000410: 8146 6716 b205 01c0 4601 1413 0fbe 843f
00000420: d4bc b1f2 213e 04c0 27ae cae5 e9ab e9bf
00000430: 6534 28d4 e8e5 0340 28ba 8a4c de00 cfbf
00000440: 14e4 9801 b70b 32c0 7a4e 4098 e700 04c0
00000450: d972 970e 9562 f0bf 3c45 2c15 14ed e13f
00000460: fc4c 74b6 81e3 eabf 4f6e 7762 c8d5 d93f
00000470: d75a 77a6 2cf1 d3bf ffbc 3fb4 ca54 febf
00000480: d8ae d858 96e2 d8bf 2f19 d694 aeb9 eb3f
00000490: 81e6 8a86 e1bf 14c0 5058 ca5a 25d1 aa3f
000004a0: 226b 3cbc 5ad5 d73f c401 8201 f673 f73f
000004b0: ae42 e04d 42df 2cc0 7b9d f6b3 13e6 0040
000004c0: 7e4c cb90 e131 ed3f 27ce 264f c931 cbbf
000004d0: ec8a 02a5 097a cebf a4bd f0cf fd46 d13f
000004e0: be75 2eb8 8111 fabf 70c4 ab56 4fba 30c0
000004f0: 886e e2cc 7dde e23f df26 3dd0 707e 0940
00000500: ba7f e5ca 92c1 f8bf c245 f8a1 f6ce 0040
00000510: aa58 a0c3 56c7 d4bf 1957 5e1d a5a6 0b40
00000520: 4351 586d a515 07c0 dc6e 1e83 6389 1040
00000530: cc24 68e4 e023 2440 f3da f7a4 b1cd f6bf
00000540: 94c5 c278 865d 1940 0a15 cf99 473f e03f
00000550: 0472 3a17 c6c3 d3bf dee3 48a6 6881 f03f
00000560: 715d 7976 fbd9 e53f be1e 017b dfe5 fa3f
00000570: 3b81 81c0 88b7 19c0 e2f5 16a2 892e f83f
00000580: 3ea8 1bdb 61ad f23f b67b b33c f1ba b1bf
00000590: 05ca 6d86 ef38 13c0 52b8 8859 83e0 13c0
000005a0: b5c3 cb2d 0d83 eb3f d27e 698f 42a0 d7bf
000005b0: 0389 d4a5 7fe5 ecbf 6f04 ea66 454e 1d40
000005c0: 27df 2213 75ec 0140 444d 2d1a b155 1040
000005d0: f661 ffad 97b6 e13f d420 7cff 475b f53f
000005e0: 7e25 4c14 22df ea3f e0a9 ee39 128e f53f
000005f0: 962a 0212 df10 cabf 6797 ee09 5875 cabf
00000600: c607 9714 8ea4 f4bf 6a34 fee1 1034 e23f
00000610: 0914 2209 a890 f93f e313 49cc 0d45 0cc0
00000620: 0393 eacf 9916 19c0 9eed 10ee ae04 0940
00000630: 7352 657b 286b 1140 0f1f 26ab cc77 f63f
00000640: 2b3a a59d 0795 e93f 4238 c11a 2b75 e53f
00000650: 7db5 89e4 3805 ea3f cb3f a87b b984 f73f
00000660: e344 d9ff 5448 f6bf acba fab5 f706 edbf
00000670: a765 3601 ac7f f43f d9cd 0fe9 98cb 1740
00000680: a46a cc83 2277 e83f d867 514c ee35 df3f
00000690: 644a c6a6 a885 0240 4caa e218 2f37 fcbf
000006a0: 25ea 570a 893c ef3f e0e3 cce4 b2aa d9bf
000006b0: 5f59 20f4 dcee 2ac0 b315 8a46 e6b9 e4bf
000006c0: 9a5f 1dd1 70cb 28c0 f824 5d5c 462b 0640
000006d0: 3921 e417 8808 1840 974c 9b07 3c3f 1bc0
000006e0: dafd 6f17 ae44 08c0 dd74 a630 634b 0140
000006f0: 938a cfdf 041b e53f 748e 0fd5 da03 11c0
00000700: 9f61 9bd5 6d49 0640 8301 2488 2059 db3f
00000710: 00ff 67f3 9c99 f33f 9467 9a60 18f6 15c0
00000720: 441b ed74 77f8 d93f 2f51 9b2a 12ca 1cc0
00000730: 6469 e966 3064 0ec0 c5e1 d9e3 289a f9bf
00000740: 85f0 9c32 4b60 d6bf 11ba 1f2e d933 f8bf
00000750: 5627 da63 37e2 e83f f973 fff3 c7f4 0840
00000760: b09e 5a6a f5ac 0f40 2f86 5472 9d80 0240
00000770: 32ee c79c 70b8 c03f 503e 690e 164c 0440
00000780: bb05 3220 c05e b03f c542 12aa e585 01c0
00000790: 2493 d32b d8ac 1b40 4549 ac96 7290 b63f
000007a0: d802 cb35 a55d f03f 4662 6f6f 442b e33f
000007b0: a62c 0d36 33be fc3f c80c 67f7 25c3 ff3f
000007c0: 3873 bbf4 d0ba 0440 2060 3444 6924 0c40
000007d0: e60a f669 ff23 f03f 43e1 62fd 4922 11c0
000007e0: ed7d f290 143f 1440 31d7 6e78 6eed e2bf
000007f0: 99f1 37e6 19e4 f03f 906e 9c7c 1cee f9bf
