Results/user_bias.npy (npy, 4912 bytes, 1 tensors)

array f8 [598]
8.150633971473022 0.6780022004999795 -4.6715367538566275 -1.4352739224809132 0.13874897610050138 -0.5330445365259756 -4.735396091558217 -0.6807232624464814
-1.6603824158477622 -1.4997030124842732 1.0401896002334086 2.7894407369719105 0.6808421286747393 -0.5945072216731594 -0.7801327362129745 0.10822969696608521
2.5329468051439186 -0.47805918779846307 -9.97075391323818 -0.8940409985746574 -3.9172244861664884 -5.860450110405025 0.06899894930204513 -0.42063174090147076
3.0789471473213923 -0.9514877328158621 -7.075351431525737 1.7506591170759163 3.2712518649327404 1.910186936813714 1.0524466929267307 -0.0717409333914095
-0.5572176617688365 1.1390959374507184 -5.150704752092869 1.7514107253002935 -3.15126928792297 1.12434334380901 2.2447886302000675 -1.8340088237722905
-0.32907099904156817 8.776870214992842 -0.7515267601063003 1.4667283241373545 2.149185927905843 -3.153187591825959 2.0251472373204362 1.2867430489590022
-9.128917227237531 0.2867204785260661 4.9996142810921365 3.3862877834531457 -1.8712285098525712 -2.6506687539137195 1.954406957130814 -6.148000291800103
1.9431091183704374 5.2343465454851295 0.4339635258988097 1.5290935958390766 4.045304450088831 -2.2826174161930615 0.4322297656668239 1.0147102487329722
2.9240381200744126 1.2668860922104745 -3.0886929803986063 3.2093023998360652 2.483749323087876 -0.13326621897985624 1.6902111775849689 -0.24201072061602602
4.804203670391973 -2.2383544510225497 -4.913430483101926 0.5793686088929411 -2.163237808453729 2.958585442949764 5.8378215227704 -1.6212546598370787
-2.993507810553683 -0.26440087336208584 0.5842939647906357 1.8834334826407002 0.830592559059238 1.7979084004958965 4.35008672715748 2.825376326758964
-3.392931577392678 1.5991841771862396 5.67428445916895 -2.8775375619904158 3.2690867307921345 0.3007084143377414 2.0346824482271413 1.4490281798845372
1.8611070158183904 3.269792097889189 0.2099377932129391 -1.5805922640261838 1.586536832351068 -1.09197286651248 5.858579113626206 2.984488776918232
1.5182374279650372 2.433150705883127 -2.8373688670228465 -0.14289870130098328 -1.4643636253437984 -0.22707883966452092 -1.03600715036453 -0.5719409092833149
1.028177534426784 -0.7432256722680517 -2.2283069059755625 0.1041065304290689 5.40754220155682 -0.8660809042202866 -1.5344022214039557 7.890511971863556
1.6469516508480617 1.532480602618205 2.32291186633719 -0.8478172059386176 -1.3017386713491197 1.9167609001612862 3.3070367420847657 -0.19067271688575646
-0.7585062452429852 -7.010673204978189 -2.2000291257387863 0.0441610890942989 -2.3167180607504863 -1.2182591914116807 1.8124200369012953 -0.2513439791978073
-13.77151280162915 -2.5575816477547475 -0.9671576318105042 0.5939756745900503 -0.9495713397411348 0.38959512763944065 -0.34909659690860456 -1.9931222544129519
-0.37070623502254324 1.0285510988946138 -5.236050903423789 0.07907135332029776 0.3955868361271317 1.3185741698654938 -10.80753371048598 2.225181287732859
0.8964969931747059 -1.187621202150379 -0.18429689290684284 0.3394354718385152 -1.4791217392732288 -9.513848885600991 0.4752288359489617 3.3244824295751423
-1.6065326451234896 2.192256109028561 -0.24878377887997657 2.8804840690440026 -2.312022690170914 3.7168857946861205 7.677832006741216 -1.5158342064694414
5.934165752243409 0.4897034436798957 -0.2562243462093603 0.7751683519688103 0.6802409048874344 1.7133064059380756 -5.5725814196702395 1.3809995125254706
1.0445813862014315 -0.07744429449048598 -4.28982326204021 -2.556303293677538 0.7364202644184106 -0.36273336806953826 -0.8351247567252519 6.071439744556646
1.1078465522944736 4.3399434596085795 0.637938658397439 1.406214729209166 0.6756009266495347 1.403439699139668 -0.1719171512507042 -0.20729848946774568
-1.2978063047359945 0.6094073330411326 1.5975536136389643 -3.3129667658636817 -5.938921277724279 1.5357863340838471 3.9037718912243307 0.34681073029095183
0.785080440566788 0.7179126308904726 0.8901542715701163 1.5513136700507575 -1.468507803694848 -0.9898780196506611 1.3333946818322817 4.881202883030421
0.8022401517571474 0.12039174307156911 2.3166948599694686 -1.801766582776536 0.8685237595248977 -0.20214506526055911 -7.35112384414242 -0.7243421309169379
-8.00018016840981 1.3143224418682826 3.9905501494586555 -5.352233718288315 -2.693614955056658 2.3199852984984553 0.41801757886786406 -2.470012654772162
2.802896158827325 0.5190308293606616 1.1853918943941435 -4.532584455583397 0.605739531768478 -5.218553834005809 -3.6211787751302404 -1.168720859595001
-0.42900274571138725 -1.4583768423779548 0.9156457359570491 2.2759337715760237 3.183748606814618 2.0148562467620743 0.20768408991133946 2.5588104973243437
-0.1621965838380216 -2.354444515123687 5.415978902947784 -0.2370931864897656 0.9347255384008638 0.6071601106748961 1.8002018966334057 2.1188536285764545
2.4181554989780922 3.4900024336004853 1.0938016310790835 -4.140004678133456 4.171420048886141 -0.572499470344435 1.0274826453516346 -1.8028762623777685
00000000: 5549 5ae5 1f4d 2040 286e b8ab 31b2 e53f
00000010: 3f81 af54 a7af 12c0 efb6 ddc9 e1f6 f6bf
00000020: ff41 5ac5 86c2 c13f ed18 766a b30e e1bf
00000030: 2265 4bac 0bf1 12c0 a4b0 ba26 7cc8 e5bf
00000040: bab6 ee26 ed90 fabf 7752 0596 c8fe f7bf
00000050: d444 aad9 9da4 f03f 5d65 1b4e c650 0640
00000060: 76b4 8c6e 75c9 e53f 2b4e 4a02 3406 e3bf
00000070: eb5b 92ed d8f6 e8bf 31e2 ec00 f1b4 bb3f
00000080: 78ce 549d 7943 0440 e163 4990 8598 debf
00000090: dea4 2ba8 06f1 23c0 aa29 45de fb9b ecbf
000000a0: 5e67 99ca 7956 0fc0 df1d 70d5 1971 17c0
000000b0: e3ec b546 eaa9 b13f 0b35 b564 a1eb dabf
000000c0: eddc be0a afa1 0840 75a8 df66 9672 eebf
000000d0: 7670 f8ec 284d 1cc0 9290 6422 b302 fc3f
000000e0: c9eb 0619 862b 0a40 f8c7 6d2d 2090 fe3f
000000f0: 6775 ee57 d2d6 f03f b65b b322 9d5d b2bf
00000100: ae9f 4122 bad4 e1bf 7db7 65a9 bc39 f23f
00000110: d65c b658 529a 14c0 5474 b040 c705 fc3f
00000120: 9c25 24ac cc35 09c0 e328 3272 4ffd f13f
00000130: ab22 c9bd 53f5 0140 b1d6 eaa2 1958 fdbf
00000140: 6d84 bcce 7f0f d5bf f142 cdee c18d 2140
00000150: 7436 17d9 810c e8bf d696 841e b877 f73f
00000160: 3608 4b64 8831 0140 2a5d 886a ba39 09c0
00000170: 1902 0f65 8033 0040 da25 1ae1 7f96 f43f
00000180: 9dc0 5570 0142 22c0 263a 97d9 a059 d23f
00000190: 019f d7e2 9aff 1340 6934 a60c 1e17 0b40
000001a0: c08d 524e 8df0 fdbf 3eb5 d4d1 9134 05c0
000001b0: 3f3a bf3a 4045 ff3f d151 7463 8d97 18c0
000001c0: e35d 3f96 f916 ff3f 2628 738a f8ef 1440
000001d0: 681a d9f3 0ec6 db3f 156e aad8 2a77 f83f
000001e0: abfa 2d4a 642e 1040 3ea2 7eeb cc42 02c0
000001f0: 6464 f908 a7a9 db3f 1596 53d0 403c f03f
00000200: bdd0 0f19 6e64 0740 d5d1 dc59 2a45 f43f
00000210: 0393 51aa a4b5 08c0 6729 92bc a6ac 0940
00000220: 1cff 10f7 b7de 0340 1c0c 1712 de0e c1bf
00000230: 39fa 30e0 1a0b fb3f 80e2 2911 35fa cebf
00000240: 73a0 be2a 8137 1340 abfb df60 26e8 01c0
00000250: 785e 1052 5aa7 13c0 38c6 7009 308a e23f
00000260: 5f3c c69f 4f4e 01c0 9620 3fd8 2eab 0740
00000270: 33bc a0e2 ed59 1740 44ce e7b9 a8f0 f9bf
00000280: 6630 1539 b4f2 07c0 8eef 07a4 f1eb d0bf
00000290: a1d4 c041 89b2 e23f 8d21 c225 8b22 fe3f
000002a0: 66bb aed8 3694 ea3f 3456 5599 3bc4 fc3f
000002b0: c69e 8f22 7d66 1140 3294 52e7 5e9a 0640
000002c0: ebbc 934f b924 0bc0 a6ba d425 4296 f93f
000002d0: a653 11a0 77b2 1640 5115 ce69 3205 07c0
000002e0: 7551 a4f1 1627 0a40 849b 4d81 ce3e d33f
000002f0: d90b 6797 0747 0040 4662 392c 382f f73f
00000300: ffbc 7426 18c7 fd3f f439 69c2 8828 0a40
00000310: 46a1 05da 3ddf ca3f 52d9 241d 1b4a f9bf
00000320: 6d8e 0d72 7462 f93f c9a5 5c8a b878 f1bf
00000330: 8036 f85c 2f6f 1740 8c24 e1a6 3be0 0740
00000340: 92c4 4a54 b34a f83f 0b0f a0b7 1777 0340
00000350: e169 d472 eeb2 06c0 a142 5d30 814a c2bf
00000360: 97db 848d 086e f7bf e882 fc5e eb10 cdbf
00000370: 13ce d33b 7c93 f0bf 0fb9 9305 574d e2bf
00000380: ec84 4d49 6a73 f03f 700b 7e34 81c8 e7bf
00000390: 8bed 3492 92d3 01c0 5e2d 7ebf b9a6 ba3f
000003a0: 9eb4 2dbe 52a1 1540 a21e ea4c efb6 ebbf
000003b0: 946f fd57 e98c f8bf db66 cf5e e28f 1f40
000003c0: 2ac5 67f9 e959 fa3f 35fe 5f61 0a85 f83f
000003d0: b844 0bd1 5295 0240 3bc2 8f8c 5121 ebbf
000003e0: 9c20 d6ed ebd3 f4bf a11b 477a 0dab fe3f
000003f0: 4965 efad cf74 0a40 e7c3 a1ad f667 c8bf
00000400: 0c2c a4e3 ae45 e8bf 9f4c a9ea ed0a 1cc0
00000410: 4e5d cade a899 01c0 fadd d442 489c a63f
00000420: 9ace 877a a388 02c0 17a2 9259 fd7d f3bf
00000430: e6b2 1127 acff fc3f 9bde ac0e 0516 d0bf
00000440: 94e2 d6b9 038b 2bc0 c6a6 ef5d ed75 04c0
00000450: 5c7e d68f f4f2 eebf 537b 1f46 d901 e33f
00000460: cb06 2d6f e362 eebf 271c f966 20ef d83f
00000470: af82 b740 9957 d6bf 7d22 3a29 d4e3 ffbf
00000480: 5516 f6a4 a6b9 d7bf 9146 40ff f174 f03f
00000490: f195 f953 b7f1 14c0 dda6 8f2c 053e b43f
000004a0: 9f39 f972 4b51 d93f 27c3 8e3a e118 f53f
000004b0: dee8 f90e 759d 25c0 d0de d3d8 2bcd 0140
000004c0: efb9 5476 1ab0 ec3f 735a f416 7f00 f3bf
000004d0: ed07 e563 0a97 c7bf 2685 a98e 4fb9 d53f
000004e0: d1b2 8f8e 7baa f7bf 0f7c 7d33 1707 23c0
000004f0: 8a15 2135 266a de3f 0237 793e 8a98 0a40
00000500: 2d30 2c93 5bb4 f9bf fcde 2592 bd89 0140
00000510: 334b 0899 25d8 cfbf 428b 493b 3b0b 0740
00000520: f226 8fc0 057f 02c0 9f26 999e 2ebc 0d40
00000530: d48a f497 19b6 1e40 1c1c 6f5e db40 f8bf
00000540: f8b6 6bf2 95bc 1740 acff d51c 4d57 df3f
00000550: b01f dacc fa65 d0bf 4f35 13dc 2dce e83f
00000560: 4593 fc92 88c4 e53f 5980 58fa b369 fb3f
00000570: ac1f 9fc8 524a 16c0 e26b e1f1 9218 f63f
00000580: 8bed bbf8 9ab6 f03f ba32 19a8 63d3 b3bf
00000590: ba54 e06d c728 11c0 5204 2824 4f73 04c0
000005a0: 683d f93a c190 e73f c6b3 4104 0637 d7bf
000005b0: 91e0 c68d 57b9 eabf 8505 1a80 2749 1840
000005c0: 3875 714e bdb9 f13f 2308 6623 1a5c 1140
000005d0: c979 5555 fe69 e43f b7b5 1104 db7f f63f
000005e0: ed6c a3d5 859e e53f 4268 9b2f 7d74 f63f
000005f0: 2523 1f97 6101 c6bf f117 63c4 c188 cabf
00000600: a923 368b d0c3 f4bf f955 abce 4380 e33f
00000610: bdf9 c260 948f f93f 89f4 40b8 f480 0ac0
00000620: 9360 5594 74c1 17c0 aa8a e8b0 9492 f83f
00000630: 10d2 dec1 ec3a 0f40 d118 20a2 2532 d63f
00000640: 07d6 1e04 611f e93f b2ea e1e8 23f9 e63f
00000650: 2e3a 99cf 247c ec3f b44a 6b48 2ed2 f83f
00000660: 7fa4 ec09 027f f7bf 04b9 2dab 14ad efbf
00000670: 6114 72a9 9555 f53f bb06 6f0c 5a86 1340
00000680: 86b8 ea89 f3ab e93f 3269 3347 fed1 be3f
00000690: 950a 9350 9788 0240 7bd0 4032 09d4 fcbf
000006a0: 3fab de56 f2ca eb3f f5c2 2bb6 e3df c9bf
000006b0: ffbf 4d02 8d67 1dc0 01e7 6c8c cf2d e7bf
000006c0: 17db 729d 1700 20c0 f691 03f8 7607 f53f
000006d0: 5fc8 878e a5ec 0f40 1d63 b2f4 af68 15c0
000006e0: fce0 5fff 858c 05c0 6803 c273 548f 0240
000006f0: 36ff 98cd ccc0 da3f df9e a7fe 95c2 03c0
00000700: a4fa 41d2 546c 0640 9608 b78a e69b e03f
00000710: 7fdc b57d 5df7 f23f c85a ccd1 5d21 12c0
00000720: 00e1 dade 3762 e33f a7e1 8593 ccdf 14c0
00000730: d23a e193 2cf8 0cc0 0cd1 e1a4 14b3 f2bf
00000740: 0d60 aeee c774 dbbf ee1c b4f4 8255 f7bf
00000750: 3c09 5549 f84c ed3f 663f e6c3 1c35 0240
00000760: 81a2 8730 5178 0940 15e0 aff3 6c1e 0040
00000770: 08cc 086b 6495 ca3f 3e5b 55a3 7178 0440
00000780: 8cb9 8d8f dbc2 c4bf 5c9f 8501 e7d5 02c0
00000790: 5ff2 9f5f f6a9 1540 fffa 09cd 1159 cebf
000007a0: d15d 4588 45e9 ed3f f619 590a db6d e33f
000007b0: 6acd 0381 a0cd fc3f 74f9 fd87 69f3 0040
000007c0: 1a07 06e9 6158 0340 2b32 5a65 86eb 0b40
000007d0: e9bc 9c23 3680 f13f 167b e762 5d8f 10c0
000007e0: f860 bfbc 88af 1040 d869 c368 ea51 e2bf
000007f0: a9e2 6fa4 9170 f03f 0f5b 9ac7 94d8 fcbf
