Results/user_bias.npy (npy, 4912 bytes, 1 tensors)

array f8 [598]
00000000: 96af 9b44 6f50 2040 67a5 b5c1 6e06 e63f
00000010: 7070 7d03 87d7 12c0 2d71 afbd 6f0e f8bf
00000020: 3219 7728 7101 c23f c406 3cc6 54e7 e0bf
00000030: 27de aea2 de1f 13c0 b42c a2d3 1bbd e5bf
00000040: f415 be07 49fa fabf 9a02 3014 d5f7 f7bf
00000050: 61cf e8da c29e f03f 6c55 b467 8c95 0640
00000060: 87bf b9c0 fafe e53f 3825 ae2a 1c02 e3bf
00000070: dda2 6c2a a719 eabf 3c90 4b15 8641 bb3f
00000080: b123 19f9 ea51 0440 d4c3 9fef 6ce8 dfbf
00000090: 8433 f96a b5ca 23c0 238c 7c54 f469 edbf
000000a0: 326a bc6f ab92 0fc0 d947 341e 6d67 17c0
000000b0: 98d7 41ac cfde b33f 8278 c1be 934d dbbf
000000c0: 84f4 2ef1 38c8 0840 6fae c08c 25bb eebf
000000d0: e320 022c f540 1cc0 3d44 b6d2 79e2 fb3f
000000e0: 2812 0538 bf42 0a40 c5e0 d580 94b4 fe3f
000000f0: 9294 6015 e3d5 f03f 0a14 6b12 a585 bebf
00000100: c502 d934 1097 e1bf afcd 1704 fb7a f23f
00000110: b137 1dde b0dc 14c0 df9b 0a8e 9a48 fc3f
00000120: 6bad b2e9 425a 09c0 0647 7f30 b1fb f13f
00000130: 7247 0c68 f70d 0240 798f ec7f 1516 fdbf
00000140: 7230 7967 2ed2 d3bf 2d08 a61d 40a5 2140
00000150: 245c 8e2c 6852 e8bf ac85 326f 0c84 f73f
00000160: d7ef db08 6c5a 0140 5a1d 6117 a928 09c0
00000170: 5cf5 d808 e355 0040 0cbe a0ed 1ab6 f43f
00000180: d755 c0e4 6b43 22c0 92d3 54f3 f79a d33f
00000190: c57a 13e2 b701 1440 51ac 9f07 dc6e 0b40
000001a0: 2b4e d5f5 0242 febf a3e3 6248 bb74 05c0
000001b0: d73a 47f7 c584 ff3f 6c79 754a f275 18c0
000001c0: c72f 7ed9 ee5b ff3f d82d 336f 72fd 1440
000001d0: c33b 029b 22b5 db3f 99fb 845f 6491 f83f
000001e0: cbbd e032 3927 1040 3869 9916 4572 02c0
000001f0: 3b27 e1b1 d511 dc3f 6901 ff45 564a f03f
00000200: 8e9c 7378 1664 0740 f720 13b9 4979 f43f
00000210: e86a 10fa 34a7 08c0 ee31 feb6 41d0 0940
00000220: 42ab 2fc8 eaee 0340 006c 25ee fd01 c1bf
00000230: e6ab 59cd 0330 fb3f 142a baed 2f6f d0bf
00000240: 8cf1 e101 1d26 1340 e6d5 2d68 721e 02c0
00000250: 677b b4f6 6ac8 13c0 940a 4a82 19dd e23f
00000260: 2d9e e2ed 567a 01c0 e550 d9d4 07c7 0740
00000270: 2ba4 99b8 9665 1740 c62a ebe2 ebfd f9bf
00000280: 7e37 d418 60f7 07c0 389d 40ff a33b d3bf
00000290: 134a a9cb 74f8 e23f a4b7 73ed 834c fe3f
000002a0: 6d77 2a61 ebd9 ea3f 98e6 9212 10a6 fc3f
000002b0: 4426 cc61 b171 1140 1f71 3142 dcb8 0640
000002c0: 6606 2b19 de09 0bc0 44f8 7fb6 70dc f93f
000002d0: 6fb6 c0f6 99d7 1640 4435 1d91 ef3a 07c0
000002e0: 8f13 ead3 b826 0a40 57fe 61c5 03b1 d13f
000002f0: ddc6 cfc1 1574 0040 1d65 2e36 a505 f73f
00000300: 1a33 0d3a ee48 fe3f da31 f0cd 3645 0a40
00000310: e4e1 77f3 dedd c93f c3e4 0f9e 5271 f9bf
00000320: 2448 022f 264f f93f 4788 77ab 2ae5 f1bf
00000330: 78a3 d8cd 1442 1740 1449 ebfe fa0e 0840
00000340: f7fd c49b 498a f83f a53f 8a06 6482 0340
00000350: d7bf a4bc d2cd 06c0 4c38 4ee2 f1f0 c3bf
00000360: 0c3c 84e5 853b f7bf d9f1 326c b018 d0bf
00000370: 8148 a01f 2149 f1bf 65ab e336 9f80 e2bf
00000380: 986b cdc0 0120 f03f 1ea1 6d9d 09eb e7bf
00000390: 00b7 6646 39ce 01c0 1fe5 3513 92f2 ba3f
000003a0: b0f1 b165 71a8 1540 95f9 95b8 a9d4 ebbf
000003b0: 6253 9c7d c2bc f8bf 65f4 9bc1 c18f 1f40
000003c0: 452e ec30 ee78 fa3f 195b 7a3f 03a4 f83f
000003d0: 7dbe 631d ed73 0240 1a28 26b8 1092 ebbf
000003e0: 2088 b39b 8509 f5bf 14d7 b63d 61e4 fe3f
000003f0: fb89 bc0d ea5c 0a40 a55a 4136 b065 c8bf
00000400: 533d eaae 9ab9 e8bf 73ea 083c 061a 1cc0
00000410: 1391 395b e8bb 01c0 caef 22b1 c1c6 a83f
00000420: 1ea4 02b7 5e6c 02c0 b25c a655 37bd f3bf
00000430: 1641 efbd b4d3 fc3f a9f0 2bce 8229 d0bf
00000440: 62b9 d8e7 0296 2bc0 419c d8e6 439a 04c0
00000450: 1165 d0ee da8a efbf 743c 8461 d303 e33f
00000460: 7662 dcc0 64a0 eebf fb78 e730 d87d d83f
00000470: dd68 82c8 55a8 d6bf a9c0 9177 ee15 00c0
00000480: 35b7 277e 05b7 d7bf 701e e1ca 4e89 f03f
00000490: 5259 b555 202a 15c0 6f62 064d e7e9 b43f
000004a0: 45de 9ddc 927d d93f b83c c76f 4402 f53f
000004b0: 5a41 de6b 818f 25c0 9c23 bbeb 8fe9 0140
000004c0: bed4 f151 38e9 ec3f ac0f d0d9 8e6b f3bf
000004d0: ad84 74f3 45f4 c7bf 190f 44fc 71de d53f
000004e0: cbad ed2c c0b6 f7bf a4d4 c0f3 25ac 22c0
000004f0: e64a 8ca7 22e8 de3f bf06 3682 41d7 0a40
00000500: ba5f 5af8 e2f2 f9bf 57f2 11b9 adb7 0140
00000510: 9f51 260c 561d d0bf b7bc 71c8 78e6 0640
00000520: be01 0545 61b2 02c0 dd7b 7e3b 96a5 0d40
00000530: 14ac 5f2c 15ad 1e40 bde5 bd7a 495f f8bf
00000540: 9787 a180 0ed3 1740 b7a4 7bec 23c4 df3f
00000550: 58dd fbb0 4833 d0bf bd59 f87a 50f4 e83f
00000560: df60 868b 96be e53f d437 1948 c28f fb3f
00000570: b406 d337 0e3b 16c0 c32e 5b74 d717 f63f
00000580: e6ee 941a 0ec8 f03f 2efb 8c91 3b96 b4bf
00000590: 4f6a 5a94 6947 11c0 8d7e a344 ab20 04c0
000005a0: 480e 8fbd 3267 e73f 9ae9 d4f7 17a3 d9bf
000005b0: ea6c ab2b 0a13 ebbf 4674 fe2f 4354 1840
000005c0: 7908 48b8 186c f13f 0246 5de8 1577 1140
000005d0: 2da9 1d44 818b e43f b666 d7c8 c089 f63f
000005e0: 8497 d268 efb3 e43f f222 3f9c 80a3 f63f
000005f0: 2902 8eb1 d67d c5bf 56e4 55da febc cabf
00000600: 56b0 f988 18eb f4bf 56a5 9486 92d4 e33f
00000610: ad1a a629 b9ea f93f 2401 a181 febb 0ac0
00000620: 5194 87e9 63fa 17c0 ed17 2c39 9788 f83f
00000630: ebf3 8810 3b31 0f40 13fa 3f02 9907 d43f
00000640: 03c3 be59 9f66 e93f 2a1c 8acb 2dc4 e63f
00000650: aeeb 311b a2bf ec3f a4d5 32d4 0710 f93f
00000660: 7810 8002 c1ef f7bf 1ad1 402d 3d05 f0bf
00000670: 40ad c814 525b f53f 5012 b164 f991 1340
00000680: c8d0 d48b 5a64 e93f b034 54f5 b2af bd3f
00000690: 2abb 1a68 a0a4 0240 dff7 1a02 2421 fdbf
000006a0: c2b9 e8a3 5cc7 eb3f cd19 4f9a 3c4d ccbf
000006b0: f4f9 2dca 622d 1dc0 a420 9a6e 3c71 e7bf
000006c0: 322f 1092 06d0 1fc0 333d 02f4 a43a f43f
000006d0: e5d8 202f 708d 0f40 9d89 6436 8178 15c0
000006e0: 961a 7243 79be 05c0 8c33 c457 28ab 0240
000006f0: 9425 f13d f7e2 da3f bc0a 98b8 339f 03c0
00000700: 49f7 a88b 408e 0640 ec55 efcc 4ae8 e03f
00000710: a892 b413 9608 f33f e965 3cb7 a934 12c0
00000720: da7c a46d df77 e33f 1de0 dd99 b7b9 14c0
00000730: 6257 59ac 4b31 0dc0 ab85 ef5c ad6c f2bf
00000740: e7cb 4e88 160a dcbf 0aed 5a61 d78a f7bf
00000750: 1353 5c3b 3ca1 ed3f c52a d54d 242d 0240
00000760: 852c 04eb d27a 0940 effa 9541 a125 0040
00000770: 1b78 9739 39f1 ca3f d4c4 bff4 feae 0440
00000780: 937b 1e68 be0e c7bf ec3f 5b22 e701 03c0
00000790: d178 b421 78a3 1540 2d9e 2278 2c05 d1bf
000007a0: 3b00 1167 9928 ee3f 6041 a45b ad30 e43f
000007b0: 3487 9294 a921 fd3f 5ea4 0291 1f07 0140
000007c0: 9c25 a2b3 e973 0340 bfad 07d8 e015 0c40
000007d0: 015c 03ca a262 f13f 4eca 82c8 b797 10c0
000007e0: 5b3d 4a9b eec8 1040 789e 1607 4369 e2bf
000007f0: f3b1 1512 7f84 f03f 11ae 4af8 c31b fdbf
8.157098907475113 0.6882852347745655 -4.710475973635866 -1.503524533232006 0.1406690070709345 -0.5282386657492784 -4.781122724459727 -0.6793345578638736
-1.6861048033182415 -1.4980059422088403 1.0387600470685003 2.823021707716796 0.6873754276439151 -0.5940075715636004 -0.8156314686394485 0.10646856326963045
2.5399989567563 -0.4985611286238598 -9.895915358467171 -0.9191838884474958 -3.9466160516142503 -5.851002189579924 0.07761857944009731 -0.42660993221750954
3.0977648584799358 -0.960345053584616 -7.0634352566050636 1.7427919608055753 3.282591283468964 1.919086936248321 1.0522185168313496 -0.11922675800003915
-0.5496903450185405 1.155024543750965 -5.21551844647722 1.7677255199903283 -3.169072938695242 1.1239482778950687 2.256819546580055 -1.81789159746492
-0.30970344643424774 8.82275478984601 -0.7600594396816445 1.4697384208342141 2.169151372157994 -3.1448537661087075 2.0419369403086147 1.2944592745151366
-9.131682537535125 0.30633353007152053 5.001678020895899 3.429130611000382 -1.8911161043987572 -2.6819978385141936 1.9699153575235664 -6.115182078762114
1.9599445815865566 5.247506844996188 0.43293061387606374 1.5354961138943735 4.03830413338387 -2.3057958379332852 0.43858854647679707 1.01814868299706
2.923870984104332 1.279611323307163 -3.0816440140018706 3.2266878410648507 2.4916587485835473 -0.13287328842383772 1.6992223760123522 -0.25678632941768
4.787220029273509 -2.2648666514385125 -4.945720534101247 0.589489702674046 -2.1847361168654715 2.972182906038244 5.849207767846603 -1.6244925369270944
-2.995788759209005 -0.30051517416946494 0.592829129959059 1.893680503413159 0.8391014955302417 1.7905426717319752 4.361028221211715 2.840263859876486
-3.3798181501631914 1.6163184288884773 5.710548263084646 -2.9037772500074954 3.2689072185334633 0.27642912173903283 2.0566821233304453 1.4388782612280189
1.8928053157462217 3.283795937435781 0.20208346260166288 -1.5901666807460948 1.581823524120872 -1.1184488962103545 5.8145324862933805 3.007314673953383
1.5337616047617055 2.438667346090329 -2.8504996049668807 -0.15579055357051386 -1.4520319905748265 -0.25150690618809574 -1.0803538546938685 -0.5782009193475061
1.0078141719193123 -0.7474411082048709 -2.2256951809021075 0.10526383370406166 5.414495076166006 -0.869709835547655 -1.5460839182535087 7.890387559074132
1.6545240317381211 1.54004215999675 2.306604604345749 -0.8615802380238649 -1.314824684341609 1.930756798812074 3.2953682969248326 -0.19060328149017383
-0.7726567665394363 -7.025414407772234 -2.216751778311058 0.04839139258680765 -2.3029150293045992 -1.2336953492829648 1.801686040813427 -0.25253362783383665
-13.792990918355546 -2.575324824796127 -0.9857000984513055 0.5942170052166049 -0.9570792929471981 0.38268093848991186 -0.354024358568166 -2.0107087460856587
-0.3705457431777746 1.033522408006231 -5.291138972467097 0.08169408445827185 0.39828940910908656 1.3130535475100213 -10.780284281616947 2.239044038437397
0.9034692383271687 -1.2137592800436137 -0.1871421278711173 0.3417019809278244 -1.482116866590206 -9.336227052010436 0.4829184185229408 3.355105416558984
-1.6217984868326156 2.214686818943203 -0.25179053484432673 2.862535062762244 -2.337099589553161 3.7058529518103414 7.6690260823625245 -1.5232634348488852
5.9561100100126145 0.4963464555172083 -0.2531301239354966 0.7798235322723525 0.6795151448341378 1.7225973907802556 -5.557671425108925 1.3808207078135843
1.0488415754652407 -0.0804173689220817 -4.319738691347609 -2.515951668014003 0.7313474371262112 -0.40057944490731645 -0.8460741856501077 6.082287549882556
1.0888907621852282 4.3662945086412055 0.6420294123065894 1.40863111928631 0.6469647452656635 1.4149175742515436 -0.16790279073394856 -0.20889268551744306
-1.3073964453315248 0.6196987751510885 1.6198054911525717 -3.3417940261134778 -5.9945217598916125 1.5333473428049686 3.8990384380144767 0.3129637262317441
0.7937771561465471 0.7114476180439671 0.8983927279617683 1.566413716221498 -1.4960336778322283 -1.0012790458395728 1.3347950755949824 4.89255292254218
0.793500207050351 0.11596220483279995 2.3303840764196098 -1.8205909807434109 0.8680861665105157 -0.22110707792871978 -7.29432216554277 -0.7325727615543838
-7.953150064695182 1.264317467841306 3.9440616304301437 -5.367680406462026 -2.7180047291943294 2.3335730416060354 0.42010289238950205 -2.452735368862106
2.8194590483607596 0.5283559801707134 1.1895962495556578 -4.55142866426602 0.6083829060989061 -5.181364444892123 -3.649070116497499 -1.1515325193689516
-0.43811572371777036 -1.4713968089043328 0.9259320411098052 2.2720419006994654 3.1849726067208075 2.01837397803262 0.21048655807584357 2.5854472275756084
-0.18013744434298626 -2.3759291347596356 5.409637953415044 -0.2659407780833785 0.9424559605613533 0.6309420385241928 1.8207183650597019 2.128478176968698
2.4315980943544684 3.5106827618926384 1.0865810290467837 -4.148162014944843 4.196222711950521 -0.5753493441051907 1.0323477465091144 -1.8192786883254295
