Results/user_bias.npy (npy, 4912 bytes, 1 tensors)

array f8 [598]
8.64645476240062 0.8257653957501896 -5.26321198223862 -2.4395695596746108 0.22330881631729238 -0.7745502754218533 -4.771419672178359 -0.6995121044679475
-2.3607922207051577 -1.627492150075428 0.9034703957231662 3.4671542252535343 0.9174522632305607 -0.7639259121614473 -1.034232648312413 0.07906989127854047
2.9282148270928787 0.13664764289594153 -8.17723652013704 -0.7488626259448616 -5.012686663229064 -6.344355588791069 -0.07005202138515786 -0.5959168304045566
3.5094812436319596 -1.2644134662737259 -6.294142245583815 1.4730651899920335 3.6249302084170254 2.26423478010577 1.2429799958877543 -0.5804104321538083
-0.12052736689334745 1.464619801260992 -6.560828159365549 2.3735424042153044 -3.426366625625003 0.9423176895516707 2.545473510230618 -1.4368686047596562
0.2983812995300844 9.651869219378932 -0.6034422203260364 1.6839303817418667 2.6028358746224365 -3.2553894085375483 2.5998667469272645 1.5718829618687846
-8.440291948285097 1.4449340335972765 5.0551517105658546 4.577410195946766 -2.3973775407277897 -3.875383375770693 2.348480555787012 -4.325899168765736
2.4466143516067325 5.89354792010907 0.4420555849116198 1.56872083268515 3.830796741614864 -1.810641410887047 1.4442242166524164 1.1616131162088732
3.259005529458568 1.467018103111461 -2.9288097817494805 3.393423994941507 2.5498166003709897 -0.436209751075891 1.917536490474376 -0.17134799590602212
4.3841741605610824 -3.108386109041733 -5.28274751309869 0.7328673971906988 -2.8517904900447184 3.1288124518114877 5.948137677925419 -1.5526468402556541
-3.5898900566198324 -0.007581850330144043 0.6888720963206725 2.0754576925680444 1.0150151723784095 1.4572198726397123 3.841796951526779 3.2440980232205696
-1.6642703887687313 2.1825851929988014 5.850869773635476 -3.3145341489547686 3.402099045776151 -0.18163070044360832 2.2905616453905044 1.3171413950867852
2.6113069939453264 3.402472489140853 0.01682643063334499 -1.5698702209444986 2.1788120951056267 -1.3430355078041838 5.4637399278048395 3.554884215668765
1.65925371377473 2.12559831645302 -2.6546136764394235 -0.7126702215397481 -0.795263926712704 -0.6367138887719896 -2.065009662107418 -0.6198532973029874
1.100717999039576 -1.3976225900289692 -1.8491059896249518 0.1801201146858136 5.40453261095825 -1.080568361496464 -1.6928167475836475 8.136749987172346
1.8588936614077163 1.7718909611780627 2.7878760598355483 -1.1116571723292894 -1.53230713795525 2.07512327828147 3.4514451629083656 -0.14516037628852516
-1.160641549077059 -6.12912832041129 -2.6431219391469782 0.14532289240183163 -0.4143352443160497 -1.394879754868022 1.5866023808733019 -0.4762139958047023
-12.849900464799065 -2.5369030399802583 -1.0714884195162875 0.5170503280482818 -1.517741078190254 0.2471213134586162 -0.4560882868248255 -2.3317319298065216
-0.41814750703642606 1.278041801433767 -6.516844407707247 0.15731425952687147 0.3729888684337655 1.262448471747343 -10.487121031763579 2.319761164247423
1.2347042328492326 -0.3876434845138081 -0.2267496173230543 0.546105386985469 -1.6563310961603772 -6.537772660850857 0.4234293798355593 4.269617742143659
-2.249084332968606 2.6630970498895463 -0.3849427058292457 2.813966121228589 -2.202102534097564 3.268689116772191 6.863151174665075 -1.7574051203750016
6.639341740824912 0.7341166045307942 -0.38147374936230627 0.791208196469767 0.8034111122961763 1.9911529993982884 -3.5773901554325898 1.2433067965915905
0.8031438117890527 -0.1464367324499751 -4.5892682788740595 -0.7372103114325185 0.7413014971179896 -1.4652957304067138 -1.3554520510066126 6.1914227765124545
1.5459738632541948 4.870448292089068 0.6419077185216226 1.427656901181735 0.12591179285646809 1.855142515746965 -0.17583465082539318 -0.18249148611895655
-0.5761674518018355 0.6873065756759472 2.22545295329416 -3.432749303917767 -4.80553026684092 1.8068462420223441 3.6358957739600375 0.6881221287653221
0.75186280358169 0.33743872875636605 1.0741722902910695 2.078205681147509 -2.15179717110269 -1.446964015399202 1.3301310686360373 4.579918576849371
0.4846170330490681 0.04547856906769847 2.7668203233013466 -2.331217436099151 0.5450074898070113 -0.5516012380171789 -6.678882226410216 -1.1166176738430975
-5.565043617890819 0.11370052638922397 3.584151141460678 -4.676732404159331 -3.361628304211231 2.8117888693344923 0.3469072092701165 -1.0499346352830041
3.0080941005003936 0.8276543846440504 1.2428729915633134 -5.592186622238662 0.567152862642687 -4.530860397773484 -4.046190493313585 -0.801218172422652
-0.7611426629302034 -1.5705050424248999 1.1814242959882486 2.000030764966324 2.941904834964484 2.1617323495361607 0.3954998904919707 3.082273143772103
-0.5806646393461653 -2.977248294749892 5.754887276989403 -0.5934958786319215 1.0824345944198859 1.3487325557076546 2.376417401419917 2.413646428459819
2.5816671531002338 4.302439344617415 1.0327982485982181 -4.645354020127817 4.119340478570524 -0.774557396338994 0.93483077568328 -2.3036915292601856
00000000: 4eb5 5d1e fc4a 2140 484c 1d8d ab6c ea3f
00000010: 5585 1e71 870d 15c0 e3f4 980b 3d84 03c0
00000020: 04e1 7e1f 6295 cc3f cb6d c1a8 1dc9 e8bf
00000030: 06fd dd09 ef15 13c0 3012 7b35 6762 e6bf
00000040: 91a3 2408 e7e2 02c0 8921 7135 350a fabf
00000050: 2c20 51bf 3ae9 ec3f 9937 bd5a bbbc 0b40
00000060: 17ed 46d9 c45b ed3f c19c 29c1 1472 e8bf
00000070: 0851 8f88 378c f0bf 48bd 23a5 ec3d b43f
00000080: ad35 30e5 fb6c 0740 9722 a882 ab7d c13f
00000090: 764a c3be be5a 20c0 d427 f4c0 aef6 e7bf
000000a0: 23a8 8ebb fd0c 14c0 ba35 60c0 9e60 19c0
000000b0: af31 dee4 edee b1bf 5027 372c c011 e3bf
000000c0: ef98 fae6 6a13 0c40 4d48 649d 093b f4bf
000000d0: 329e f49f 332d 19c0 db44 fecd ac91 f73f
000000e0: fd77 bb68 dbff 0c40 0729 d81f 271d 0240
000000f0: cfb8 fefd 3ee3 f33f 5f73 0be6 b892 e2bf
00000100: aa75 14ab e1da bebf f5d6 372c 156f f73f
00000110: 889a acbc 493e 1ac0 0a31 cecc 03fd 0240
00000120: 7652 c9e7 3269 0bc0 7622 626d 7727 ee3f
00000130: d832 3a37 215d 0440 5078 21ef 69fd f6bf
00000140: 720f cee0 ad18 d33f cd00 65cd c14d 2340
00000150: 356e 2a0f 664f e3bf 6027 e5fb 60f1 fa3f
00000160: 12df 729d 9bd2 0440 f54e 2b9a 090b 0ac0
00000170: 8615 e0ef 86cc 0440 52db a5bf 6e26 f93f
00000180: 3a27 3df2 6de1 20c0 bad7 3226 731e f73f
00000190: 93cb a4b0 7938 1440 8ddf 4f9e 444f 1240
000001a0: e3b9 ac46 d42d 03c0 7a2d d3ff c800 0fc0
000001b0: 4d2d 732c b0c9 0240 d791 fe82 b84d 11c0
000001c0: ee99 908b aa92 0340 ee1b d939 fe92 1740
000001d0: 6669 0d82 a34a dc3f 58fc 0e04 7b19 f93f
000001e0: a6df 16c3 78a5 0e40 ceb0 c820 63f8 fcbf
000001f0: 45d0 29da 8a1b f73f 528c 8ba2 f795 f23f
00000200: cc0f b47d 7112 0a40 140f 78f9 e778 f73f
00000210: 248d a6d2 336e 07c0 2fe2 bd7a bb25 0b40
00000220: 6321 eb3e 0666 0440 de4d c44d dcea dbbf
00000230: c095 37be 3aae fe3f 9464 532b bbee c5bf
00000240: fa4f 7ef3 6489 1140 4366 4d89 f9dd 08c0
00000250: 0723 6790 8821 15c0 61a3 e753 a673 e73f
00000260: 7b49 4e88 77d0 06c0 88c8 9ed2 ce07 0940
00000270: 232e 7b9a e4ca 1740 1e2c 9236 a4d7 f8bf
00000280: 9757 2b47 18b8 0cc0 96cf 6073 250e 7fbf
00000290: 4260 9a7e 3d0b e63f b17d 0e90 899a 0040
000002a0: f5f1 a48c 803d f03f 021a 01c9 c550 f73f
000002b0: ab70 450a 00bc 0e40 3801 16aa e9f3 0940
000002c0: 1168 b7fc d9a0 fabf 424f c539 ef75 0140
000002d0: 5bad eb67 4a67 1740 2ce3 d97a 2a84 0ac0
000002e0: 19e4 5ab4 7f37 0b40 656c 2dbf ac3f c7bf
000002f0: b164 e3fb 1153 0240 5db0 01db 0213 f53f
00000300: 6f7d d6eb f4e3 0440 8b32 137f 4338 0b40
00000310: 0051 1da5 f23a 913f 12bc 9e3c 301e f9bf
00000320: ffdc 2409 356e 0140 eb2b f6cc 127d f5bf
00000330: b215 bfa3 deda 1540 62e9 ba22 6770 0c40
00000340: 3add 469f 4d8c fa3f 7bc9 acb0 3901 0140
00000350: bd92 5e18 a63c 05c0 d514 cbc7 31ce e6bf
00000360: 666d 9d55 cd72 e9bf e0e8 25ce f55f e4bf
00000370: 2967 25c9 2385 00c0 b77d 0795 d6d5 e3bf
00000380: 88e5 ff79 8a9c f13f 2d34 4581 a95c f6bf
00000390: 1d6e 8429 f095 fdbf 09b3 f608 2d0e c73f
000003a0: b9ec f8cb 3d9e 1540 8f83 db0c 024a f1bf
000003b0: bae2 8f03 c715 fbbf 6d44 2518 0446 2040
000003c0: 30ce a747 07be fd3f 9167 2556 aa59 fc3f
000003d0: 335c b2f6 914d 0640 474a f807 59c9 f1bf
000003e0: 5f1f 4f7d 5484 f8bf 0719 bb3b da99 0040
000003f0: d407 1548 8f9c 0b40 57c9 6a7e 9d94 c2bf
00000400: cea2 7adf fc91 f2bf 989d e436 3a84 18c0
00000410: 9dcf 7f1d 1d25 05c0 5ded 1cc7 f099 c23f
00000420: 03ba faf8 7784 dabf a12b 106f 6d51 f6bf
00000430: 80b4 992d b962 f93f 413c 7844 4a7a debf
00000440: 9955 5a27 26b3 29c0 9db4 2ed2 934b 04c0
00000450: cad7 7d0a d124 f1bf 654f 2b21 ad8b e03f
00000460: 7bf7 69de aa48 f8bf 5c83 b9d3 aba1 cf3f
00000470: 3015 00ed 8c30 ddbf bd76 ec11 63a7 02c0
00000480: 3906 e8c2 edc2 dabf 6743 c1f5 db72 f43f
00000490: 79e4 10a9 3f11 1ac0 1f62 eea7 df22 c43f
000004a0: 057c ecb3 0cdf d73f eaa3 302b fd32 f43f
000004b0: 983c 89ed 67f9 24c0 ddc9 f7f0 de8e 0240
000004c0: a21f c539 59c1 f33f 6ba2 1f9e 26cf d8bf
000004d0: 6f3a 64a7 2106 cdbf 55b4 2801 b279 e13f
000004e0: d8b4 1509 5580 fabf 3a26 5ce0 ad26 1ac0
000004f0: 64cb a38a 7719 db3f a8b6 63ac 1614 1140
00000500: 7d5e 40ed 1ffe 01c0 26cc 7ad3 054e 0540
00000510: f6b3 17bb e6a2 d8bf 81d4 75ab 0083 0640
00000520: 231a f3ee e79d 01c0 1a9f ca7a 4626 0a40
00000530: 0dc3 cae6 dd73 1b40 5356 ddd4 541e fcbf
00000540: 293e ef99 af8e 1a40 6521 fd1a e27d e73f
00000550: 72ca 72df 106a d8bf fa45 05da 9351 e93f
00000560: 0fc3 9138 8bb5 e93f a1f7 5b3f c3db ff3f
00000570: 32ec d4ba 7e9e 0cc0 2416 e4aa 95e4 f33f
00000580: e3cc b3a6 5ab3 e93f a722 6758 70be c2bf
00000590: 5156 c924 695b 12c0 730d 3c14 3a97 e7bf
000005a0: 921f d3ea bdb8 e73f 570b 91ef d971 f7bf
000005b0: 93e9 657d eeaf f5bf 7152 1355 04c4 1840
000005c0: 565c f216 4fbc f83f c386 0dcc 567b 1340
000005d0: 0236 430e 828a e43f 83bf 47c3 aed7 f63f
000005e0: a6e7 3fac e01d c03f 8cd6 28eb a9ae fd3f
000005f0: f039 66f5 bf81 c6bf 26f5 568a e15b c7bf
00000600: f545 50b9 f66f e2bf 7f53 1b5c 6afe e53f
00000610: f27a 2947 bacd 0140 708c 5d44 4576 0bc0
00000620: 6214 20ed dc38 13c0 fa2e e69a d7e8 fc3f
00000630: 7195 0686 5016 0d40 426e d6b2 1805 e63f
00000640: 97ca 0e95 420f e83f e064 1a9c 9898 d53f
00000650: ed1c 9148 cf2f f13f a11e d74c 2aa0 0040
00000660: 4917 6c6f e136 01c0 fb0d 4abd c326 f7bf
00000670: 09f7 f283 3748 f53f c6a4 e72c d651 1240
00000680: 6af0 0129 f703 df3f c618 a18d f748 a73f
00000690: 42e6 93b1 7222 0640 5e49 bf53 55a6 02c0
000006a0: 337a 198c b370 e13f cef0 b6a3 b7a6 e1bf
000006b0: f711 01e7 2cb7 1ac0 ccaa 747e aadd f1bf
000006c0: 4c9e 4ecb 9a42 16c0 2534 614a 7a1b bd3f
000006d0: 1cf5 036f 57ac 0c40 f807 e056 f9b4 12c0
000006e0: 5229 5f61 9de4 0ac0 4063 a829 8b7e 0640
000006f0: 2df4 a34b ba33 d63f aba6 9742 88cc f0bf
00000700: 9084 c7a3 9310 0840 8dfd 4d0c 257c ea3f
00000710: b089 3dca cee2 f33f 3693 7e2b 665e 16c0
00000720: 8742 9cc2 1d26 e23f f4b6 3cde 991f 12c0
00000730: fcab 888f 4c2f 10c0 8b84 f04a 94a3 e9bf
00000740: b604 9cdb 475b e8bf 48b0 36e5 c920 f9bf
00000750: 7782 9f29 1de7 f23f 9c31 3421 1000 0040
00000760: 13ef f066 0589 0740 54b4 7f54 3a4b 0140
00000770: 9d03 cfc5 de4f d93f e9b8 6ed2 7ea8 0840
00000780: ebee 7d02 ce94 e2bf 312e d08d 67d1 07c0
00000790: 0b58 9b2b 0105 1740 ce1d a111 ebfd e2bf
000007a0: 9c7a f1ef a651 f13f ba09 9d96 6894 f53f
000007b0: 66f3 6520 e702 0340 adbc d2db 254f 0340
000007c0: 8fc8 bd1b 41a7 0440 349f d8a8 b235 1140
000007d0: dc86 d174 5786 f03f 162a 2baf d794 12c0
000007e0: 9332 f263 347a 1040 16d4 c497 2cc9 e8bf
000007f0: f753 1b3b 22ea ed3f 32f5 11d3 f56d 02c0
